model_mnist_20241120_184740.pt (torch, 835352 bytes, 16 tensors)

conv_layers.0.weight f4 [16, 1, 3, 3]
0	0x3e47211f	0.19446228
1	0x3ed1e6e7	0.40996477
2	0xbc82819f	-0.015930949
3	0x3e8314da	0.25601846
4	0x3dee7b07	0.11644559
5	0xbec7fa6a	-0.39058238
6	0x3c5f612e	0.013634009
7	0xbebc8b83	-0.3682519
8	0xbe81161c	-0.2521218
9	0xbe984876	-0.29742783
10	0xbe852f5d	-0.26012698
11	0xbdc396bb	-0.09550234
12	0xbeadb39e	-0.339261
13	0x3e682fc5	0.22674473
14	0x3e096f7e	0.13421437
15	0xbd7e147f	-0.062031265
16	0x3e8e25fa	0.2776335
17	0xbda77f43	-0.0817857
18	0x3df1dfb9	0.1181025
19	0xbe2bf2f0	-0.16791892
20	0xbe3d1eaf	-0.18468736
21	0xbea82271	-0.32838777
22	0xbd625dec	-0.055265352
23	0x3e12f9fb	0.14353172
24	0x3da3daa4	0.08000687
25	0x3e535b13	0.20640211
26	0x3a7dc4dc	0.00096805184
27	0xbdf0ae0a	-0.11751945
28	0xbd7aaa66	-0.06119766
29	0xbd9d0d0e	-0.076685056
30	0xbe5cccab	-0.2156245
31	0xbe4ed8e9	-0.20199932
32	0x3e8ee452	0.2790857
33	0xbeb7a731	-0.35869744
34	0x3e2f02ae	0.17090866
35	0x3dd37a74	0.103260905
36	0xbded4605	-0.11585621
37	0x3e513623	0.20430808
38	0x3e5519c7	0.20810615
39	0x3dd6f984	0.1049681
40	0x3ddf8cb5	0.109155096
41	0xbd8c61b9	-0.068545766
42	0x3edb780f	0.42865035
43	0x3e5dc9e3	0.21659045
44	0xbed8ca74	-0.4234196
45	0x3e924b9a	0.28573304
46	0x3d4fc7f3	0.050727796
47	0x3dffa650	0.124828935
48	0xbe5431cb	-0.2072212
49	0x3c5d2577	0.013497702
50	0x3e248ecd	0.16070099
51	0xbeddd164	-0.43323815
52	0x3e3a466f	0.18190931
53	0x3ea45608	0.32096887
54	0x3e496439	0.19667138
55	0x3e8bf6ab	0.2733663
56	0xbe922b4b	-0.28548655
57	0x38eef43c	0.000113942166
58	0xbdb4a324	-0.08820179
59	0xbe948afa	-0.2901228
60	0x3d1f621e	0.03891193
61	0xbe9771ac	-0.29578912
62	0xbe24ea54	-0.16105014
63	0xbe355c5b	-0.17711012
64	0x3eaeda7a	0.3415106
65	0x3ddd9504	0.10819438
66	0x3d4db316	0.050219618
67	0x3e8a83c2	0.27053648
68	0xbe2c95f6	-0.1685408
69	0xbea09b8f	-0.31368682
70	0xbd342419	-0.043979738
71	0x3ed3cd89	0.41367748
72	0xbdffdab3	-0.124928854
73	0xba96acbf	-0.0011495574
74	0xbe2ee8e2	-0.17081025
75	0x3d9df5ef	0.07712924
76	0xbe8a1282	-0.26967245
77	0xbe55d48e	-0.20881864
78	0x3e580334	0.21094972
79	0x3ebd095d	0.36921206
80	0xbeb2524c	-0.34828413
81	0xbf027bc1	-0.50970083
82	0xbebcba4f	-0.36860892
83	0xbe0d318c	-0.13788432
84	0x3caa6a40	0.020802617
85	0x3e479b53	0.19492845
86	0x3e1edb65	0.1551338
87	0xbe5c8470	-0.21534896
88	0x3e0b96aa	0.13631693
89	0x3e8ac2b5	0.27101675
90	0x3de23c99	0.11046714
91	0xbe581ed7	-0.21105514
92	0xbed3572d	-0.41277447
93	0x3db98b7e	0.09059809
94	0x3df71d99	0.12066192
95	0x3deca4c2	0.115548626
96	0xbe279cd3	-0.16368417
97	0x3dfddd8e	0.12395774
98	0x3e80b21c	0.25135887
99	0x3e900786	0.2813074
100	0xbe900e41	-0.28135875
101	0xbe39e007	-0.18151866
102	0x3ea0031d	0.31252375
103	0x3da92e52	0.08260788
104	0xbee3c891	-0.44488958
105	0x3ec9e4ae	0.3943228
106	0xbe390f38	-0.18072212
107	0x3dee9a45	0.11650518
108	0x3e6a58e8	0.22885478
109	0x3e182bf3	0.14860515
110	0x3d8dadcf	0.06917917
111	0x3a7c1ff4	0.00096177985
112	0x3e3dc118	0.1853069
113	0x3ea2a834	0.31768954
114	0xbee81e93	-0.45335826
115	0xbe6bbe3d	-0.23021789
116	0xbe931e52	-0.2873407
117	0xb759ec02	-1.2989158e-05
118	0xbe45ae1e	-0.19304702
119	0xbe2c3a8c	-0.16819209
120	0x3dbb8fd7	0.09158295
121	0x3e9722b7	0.29518673
122	0x3e1ad879	0.1512164
123	0xbc8cff89	-0.017211692
124	0xbe100c72	-0.14067248
125	0xbcc3537b	-0.023843518
126	0x3dca45bf	0.09876584
127	0x3d80f6d5	0.062970795
128	0x3eaf9824	0.34295762
129	0x3d82eb31	0.063925155
130	0x3e49e971	0.19717957
131	0x3e5dfea2	0.21679166
132	0xbd3bec14	-0.04587944
133	0xbe9d7555	-0.3075358
134	0xbed42003	-0.41430673
135	0xbdeae44e	-0.11469327
136	0xbea0ae8d	-0.31383172
137	0x3ddf6dcd	0.10909615
138	0xbdb1aaa1	-0.08675123
139	0xbe63703e	-0.22210786
140	0xbec84dbf	-0.39121816
141	0x3eeceaf3	0.46273002
142	0x3decb8dd	0.115586974
143	0x3e859093	0.26086864

conv_layers.0.bias f4 [16]
0	0x3e1bafaa	0.1520373
1	0x3e25d533	0.1619461
2	0x3c981247	0.018563403
3	0xbd6596c9	-0.056052003
4	0xbe653649	-0.2238399
5	0x3e40e1fb	0.18836205
6	0xbeb29ca6	-0.34885138
7	0x3dd9d5b5	0.106364645
8	0x3d0de620	0.034643292
9	0x3e4af894	0.19821388
10	0xbe9f26f5	-0.3108441
11	0xbe6362a4	-0.22205597
12	0x3e023068	0.12713778
13	0x3cd7bcbe	0.026335116
14	0x3ec4457a	0.38334256
15	0x3d1c4f7b	0.038161736

conv_layers.1.weight f4 [16]
0	0x3f8ce59a	1.1007569
1	0x3f896094	1.0732598
2	0x3f8a1e51	1.0790502
3	0x3f807e14	1.0038476
4	0x3f665e98	0.8998809
5	0x3f4f960b	0.8108832
6	0x3f926994	1.143847
7	0x3f384dda	0.7199379
8	0x3faee047	1.3662194
9	0x3f8704d3	1.0548347
10	0x3f474e57	0.7785391
11	0x3f8ce8e9	1.1008579
12	0x3f8f1e6e	1.1181161
13	0x3f71723f	0.9431495
14	0x3f5dd68a	0.86655486
15	0x3f6b19f0	0.9183645

conv_layers.1.bias f4 [16]
0	0xbe8364a2	-0.25662714
1	0xbd87bc13	-0.06627669
2	0xbe20d4ad	-0.1570613
3	0xbdf8a947	-0.12141662
4	0xbeb276e2	-0.34856325
5	0xbebdaeeb	-0.37047514
6	0xbe37ddbf	-0.17955683
7	0xbed934c2	-0.42423064
8	0xbe2a19dc	-0.16611427
9	0xbea10df3	-0.31455955
10	0xbecde503	-0.40213785
11	0xbe96333a	-0.29335958
12	0xbe6f2526	-0.23354015
13	0xbecd3140	-0.40076637
14	0xbe898756	-0.26861066
15	0xbea2c4b9	-0.31790712

conv_layers.1.running_mean f4 [16]
0	0x3e186f62	0.14886239
1	0x3e13a3a6	0.14417896
2	0x3c8d036d	0.017213548
3	0xbd86cf3a	-0.06582494
4	0xbe5c87df	-0.21536206
5	0x3e4bd032	0.19903639
6	0xbeb7a325	-0.35866657
7	0x3ddf4a2a	0.109028175
8	0x3cd74e18	0.026282355
9	0x3e3914a6	0.18074283
10	0xbea183b9	-0.3154581
11	0xbe5a31d7	-0.21308075
12	0x3df0a86b	0.11750873
13	0x3c99daf6	0.018781167
14	0x3ec4045a	0.3828457
15	0x3d4b71f6	0.04966923

conv_layers.1.running_var f4 [16]
0	0x3f2153f4	0.6301873
1	0x3eca05b6	0.39457482
2	0x3dece950	0.11567938
3	0x3ec70310	0.38869524
4	0x3f10e536	0.5659975
5	0x3ec045a5	0.37553135
6	0x3f11a000	0.56884766
7	0x3e9d4c94	0.30722487
8	0x3ea7723e	0.32704347
9	0x3f1dfc3e	0.61713016
10	0x3e204518	0.15651357
11	0x3ee6addd	0.45054522
12	0x3eb70204	0.35743725
13	0x3d17cde8	0.037061602
14	0x3eba521f	0.36390778
15	0x3ea6882a	0.3252576

conv_layers.4.weight f4 [32, 16, 3, 3]
0	0x3c44262e	0.011971993
1	0x3c4af0f3	0.012386548
2	0x3ce74f00	0.028235912
3	0xbde4112c	-0.11136088
4	0xbb7d942d	-0.0038693056
5	0x3cd4b110	0.025963336
6	0xbe200b5a	-0.1562933
7	0xbe2ee4f8	-0.17079532
8	0x3bf6dbad	0.0075335116
9	0x3c003ee8	0.007827498
10	0x3dd7f667	0.105450444
11	0x3d1b1304	0.03785993
12	0x3cc9f8b8	0.024654731
13	0x3c0a8163	0.0084537
14	0xbc73c5ab	-0.014878671
15	0x3d081655	0.033224422
16	0xbde2d2e2	-0.11075379
17	0x3c67133f	0.01410371
18	0xbd1d77a1	-0.038444165
19	0xbd14dd3d	-0.0363438
20	0xbdda6172	-0.106631175
21	0xb9b827a3	-0.00035124747
22	0xbd76b963	-0.060235392
23	0xbdecf3a0	-0.11569905
24	0x3d472a01	0.048624042
25	0xbdbbedb1	-0.091761954
26	0xbde685dd	-0.11256001
27	0x3d83914a	0.06424196
28	0x3c3004ef	0.010743364
29	0x3dc946f6	0.09827988
30	0x3cb8bfec	0.022552453
31	0x3dbdea1b	0.09273168
32	0x3dfcc960	0.12343097
33	0x3e2c3cfb	0.16820137
34	0x3de3e3ad	0.1112741
35	0x3dab7707	0.08372312
36	0xbe18409c	-0.14868397
37	0xbd354138	-0.04425165
38	0x3daa5ed5	0.08318869
39	0xbdca62b8	-0.0988211
40	0x3d887576	0.06663029
41	0x3e3ac800	0.18240356
42	0xbda4ac10	-0.08040631
43	0x3d8c8c18	0.06862658
44	0x3e2a8ec8	0.16656029
45	0xbd7f3a98	-0.06231174
46	0x3cae8a41	0.021306159
47	0x3da40e16	0.08010499
48	0x3d8f06f2	0.069837466
49	0x3da6c7ad	0.08143554
50	0x3e1b2bac	0.15153378
51	0x3da0dda1	0.07854772
52	0x3e006d90	0.12541795
53	0x3dc898f9	0.09794802
54	0xbbeed549	-0.007288609
55	0xbd698dfd	-0.057020176
56	0x3db80cc0	0.08986807
57	0xbdc67f24	-0.09692219
58	0x3a1fec8d	0.00061006175
59	0x3bd60c1c	0.0065322053
60	0xbd99add6	-0.0750386
61	0xbe1a65a3	-0.15077834
62	0xbd36987a	-0.044579007
63	0xbd62851b	-0.05530272
64	0x3dc6f8c4	0.09715417
65	0x3c940483	0.018068558
66	0xbc6de39f	-0.014519601
67	0x3df50b0e	0.11964999
68	0x3e03463d	0.12819763
69	0xbcf48063	-0.029846376
70	0x3d870dcd	0.06594429
71	0x3dc90f33	0.09817352
72	0xbcf6c4f6	-0.030123215
73	0xbdb29024	-0.08718899
74	0xbd00cf3b	-0.03144763
75	0x3c388150	0.011261299
76	0xbe4f6698	-0.2025398
77	0xbd1393d1	-0.03602964
78	0x3d0886fb	0.033331852
79	0xbd18d3bd	-0.037311304
80	0x3d932c96	0.071862385
81	0x3ab87c09	0.0014075051
82	0x3d7ac67b	0.061224442
83	0x3cd44396	0.025911134
84	0x3e063b98	0.1310867
85	0x3d9694eb	0.073526226
86	0xbd8c7591	-0.068583615
87	0x3e351bfd	0.17686458
88	0x3c012693	0.007882732
89	0xbdb12ea6	-0.086514756
90	0x3cffe6ea	0.031238038
91	0xbe1d9421	-0.15388538
92	0xbe01489d	-0.12625356
93	0xbda766cd	-0.081739046
94	0xbe270fdd	-0.16314645
95	0xbd674f1d	-0.056471933
96	0xbd0d998a	-0.034570254
97	0xbe1b3bb5	-0.15159495
98	0xbdfb677d	-0.12275598
99	0xbddde924	-0.10835484
100	0x3bd0ffa8	0.006378133
101	0xbc7adac2	-0.015310945
102	0xbd9f36d4	-0.077741295
103	0xbd6e3024	-0.05815138
104	0x3cc27c13	0.023740804
105	0xbda3c56e	-0.07996641
106	0xbdfb6090	-0.12274277
107	0x3dc069e6	0.093951985
108	0x3d0f02d6	0.034914814
109	0xbcd9c36b	-0.02658244
110	0xbe297787	-0.16549502
111	0xbd3188d2	-0.043343373
112	0xbe2eace6	-0.17058143
113	0xbe0c2177	-0.13684641
114	0xbe0971de	-0.13422343
115	0xbdb5efc4	-0.08883622
116	0xbda9afb4	-0.08285466
117	0xbcd644a0	-0.02615577
118	0xbdfe33a4	-0.124121934
119	0xbdd0795e	-0.10179399
120	0xbddb312c	-0.10702738
121	0xbccbdb83	-0.024884945
122	0xbe3f9b54	-0.18711597
123	0x3b64413a	0.0034828917
124	0xbd848e4d	-0.06472454
125	0xbc334147	-0.010940856
126	0xbdc71861	-0.09721447
127	0xbde9e0f6	-0.11419861
128	0x3c810599	0.01574974
129	0xbe081ebf	-0.13292979
130	0xbdec84d4	-0.115487725
131	0x3ba49a39	0.0050232676
132	0xbe19fc1c	-0.15037578
133	0x3cba89cc	0.022770785
134	0xbd123efd	-0.0357046
135	0x3c1d1f24	0.009589944
136	0xbe238b49	-0.15971102
137	0xbe00bc6e	-0.1257188
138	0xbce112ba	-0.02747475
139	0xbd71ccba	-0.059033133
140	0xbe117a5d	-0.14206834
141	0x3d8c3a2e	0.068470344
142	0xbd6c724c	-0.05772619
143	0xbc0f97e0	-0.008764237
144	0xbdca3e35	-0.09875146
145	0xbdcd05c1	-0.10010863
146	0xbe278c7d	-0.16362186
147	0x3d91671c	0.07099745
148	0xbd09786b	-0.033562105
149	0xbe42e964	-0.19034344
150	0xbe375d68	-0.17906725
151	0xbd44567c	-0.04793404
152	0xbd2ab27e	-0.04167413
153	0xbdfdc5e7	-0.123912625
154	0x3d6f6fdb	0.058456283
155	0xbcd73df7	-0.026274664
156	0xbe1fd444	-0.15608317
157	0xbe2a46f9	-0.16628636
158	0xbe050fc3	-0.12994294
159	0xbc9469c5	-0.018116841
160	0xbc699d12	-0.01425864
161	0x3bb43c6e	0.005500368
162	0xbc6004d7	-0.013673029
163	0x3e3176d7	0.1733049
164	0x3dd12680	0.102124214
165	0xbdbed96b	-0.09318813
166	0xbd6501cb	-0.055909913
167	0xbc8874bd	-0.016657228
168	0xb9895fed	-0.00026202147
169	0x3d96663b	0.07343718
170	0xbb84f4a5	-0.004057484
171	0xbd9983f9	-0.07495875
172	0xbe0c26a5	-0.13686617
173	0xbd99ae13	-0.07503905
174	0xbd6c8735	-0.05774613
175	0x3cb06b6e	0.021535601
176	0xbc318297	-0.010834358
177	0xbd897515	-0.06711785
178	0x3ccb3f4d	0.024810458
179	0x3c5cb353	0.013470489
180	0x3dc81529	0.09769661
181	0xbc86c7a8	-0.016452625
182	0xbcd94c96	-0.026525777
183	0xbd312abd	-0.04325365
184	0xbdcb0456	-0.099129364
185	0xbe174e61	-0.14775993
186	0xbdab29cf	-0.08357584
187	0xbe0530b8	-0.13006866
188	0xbb51af0a	-0.00319952
189	0x3dabe466	0.08393173
190	0xbd30ddf2	-0.043180414
191	0x3c5bfc8b	0.01342691
192	0xbb581b2f	-0.0032975187
193	0x3dc8ebf6	0.09810631
194	0x3cb1e11c	0.021713786
195	0xbd91b413	-0.071144246
196	0xbd694238	-0.056947917
197	0xbcb5258d	-0.022112632
198	0xbe1bf861	-0.15231468
199	0xbe370d24	-0.17876107
200	0xbdb8dc3d	-0.09026382
201	0x3d704be9	0.058666144
202	0x3d078892	0.033089228
203	0xbd75a03e	-0.059967272
204	0xbe0dd98c	-0.13852519
205	0xbe00978e	-0.12557814
206	0xbe2ed20a	-0.17072311
207	0x3cb44bc8	0.022008792
208	0x3d6d519a	0.05793915
209	0x3cc3d083	0.023903137
210	0x3cfec77d	0.031100983
211	0x3dde56a0	0.10856366
212	0x3c6846db	0.0141770495
213	0xbd719744	-0.05898215
214	0xbdcc1f8c	-0.099669546
215	0xbd397d3d	-0.045285452
216	0x3dba207b	0.090882264
217	0x3e2df324	0.16987282
218	0xbbf31662	-0.0074184397
219	0x3d519dbf	0.05117583
220	0x3ddcad0f	0.10775196
221	0x3dce058c	0.10059652
222	0x3e44576c	0.19173974
223	0x3b99d0e7	0.0046940926
224	0xbb8da409	-0.004322533
225	0xbd6ae27c	-0.0573449
226	0x3d1655d0	0.03670293
227	0xbd489087	-0.048965957
228	0xbe0f615c	-0.14001983
229	0xbdf6efc9	-0.12057454
230	0xbe0ccd12	-0.13750103
231	0xbd0d93ed	-0.0345649
232	0x3d510a7a	0.05103538
233	0xbd198ae3	-0.03748597
234	0x3ddbf0f7	0.1073932
235	0x3e488d46	0.19585142
236	0x3da96528	0.08271247
237	0xbcd47ab2	-0.025937412
238	0x3e1640e6	0.14673194
239	0x3d2b0a2e	0.041757755
240	0xbcf85314	-0.030313052
241	0xbd901648	-0.070355
242	0xbd53c4f4	-0.0517015
243	0xbc81fa7a	-0.015866507
244	0x3cf524f2	0.029924843
245	0xbd5c1a20	-0.053735852
246	0xbdcd985c	-0.10038826
247	0xbe01d42c	-0.12678593
248	0x3d40e209	0.047090564
249	0x3b82ccd9	0.003991705
250	0xbe029d5a	-0.12755337
251	0xbd686d7e	-0.056745045
252	0x3e1ed3d1	0.15510489
253	0xbd81b6ec	-0.06333718
254	0xbd85653b	-0.06513449
255	0x3e8225bc	0.25419414

conv_layers.4.bias f4 [32]
0	0xbc8b9e27	-0.017043186
1	0xbc01c338	-0.007920079
2	0x3d21d6af	0.03951138
3	0x3d440569	0.047856722
4	0x3c41a358	0.011818729
5	0xbb860dc6	-0.0040909974
6	0xbaf546a0	-0.0018713064
7	0xbdb59ac2	-0.08867408
8	0xbdc99c33	-0.09844246
9	0x3cf58bca	0.029973883
10	0xbd023fad	-0.031799007
11	0xbc8fa15b	-0.017532995
12	0x3d9366d5	0.07197348
13	0xbd08f03d	-0.033432234
14	0x3d04639e	0.032321565
15	0x3cc36ddc	0.023856096
16	0xbd7cf53e	-0.06175732
17	0x3dad5406	0.08463292
18	0x3d27f11f	0.041001435
19	0xbcaf5731	-0.02140388
20	0x3d227811	0.039665285
21	0xbc4ffd26	-0.012694633
22	0xbc50def8	-0.012748472
23	0x3c1a5b20	0.00942114
24	0xbcec9a0f	-0.028882055
25	0xbcc3186d	-0.023815358
26	0x3d2a7f55	0.04162534
27	0x3d4e106e	0.050308637
28	0xbc533f7f	-0.012893557
29	0x3d77cde6	0.060499094
30	0xbd950ea4	-0.07278183
31	0xbba76ec6	-0.005109641

conv_layers.5.weight f4 [32]
0	0x3f6354ab	0.8880107
1	0x3f686299	0.9077545
2	0x3f806ae3	1.0032619
3	0x3f51a684	0.8189471
4	0x3f6193b9	0.8811603
5	0x3f42c936	0.76088274
6	0x3f4b6318	0.7944808
7	0x3f526667	0.82187504
8	0x3f613c4c	0.8798263
9	0x3f69f028	0.91382074
10	0x3f4bc530	0.7959776
11	0x3f73a574	0.95174336
12	0x3f58d426	0.8469871
13	0x3f55d966	0.8353485
14	0x3f7026df	0.9380931
15	0x3f8628be	1.0481184
16	0x3f5555cc	0.8333404
17	0x3f3a83d9	0.72857434
18	0x3f78e08e	0.97217643
19	0x3f467b83	0.77532214
20	0x3f5d67b1	0.86486346
21	0x3f64e368	0.89409494
22	0x3f830349	1.0235378
23	0x3f7081f7	0.9394831
24	0x3f4e5c55	0.8060964
25	0x3f5b57e3	0.8568098
26	0x3f7b81c2	0.9824487
27	0x3f776f6d	0.966544
28	0x3f6ce60d	0.9253853
29	0x3f50f41a	0.8162247
30	0x3f734c9d	0.9503878
31	0x3f66742e	0.90021026

conv_layers.5.bias f4 [32]
0	0xbead262d	-0.33818188
1	0xbe96ceb2	-0.2945457
2	0xbeba29b3	-0.3635994
3	0xbef42c37	-0.47689983
4	0xbea5f026	-0.3240978
5	0xbf014544	-0.50496316
6	0xbeb16c20	-0.34652805
7	0xbec1ccd6	-0.3785159
8	0xbedaa43f	-0.42703435
9	0xbe9dce32	-0.30821377
10	0xbeb1bb88	-0.34713387
11	0xbe92b9d6	-0.28657407
12	0xbef095fe	-0.46989435
13	0xbec3c85b	-0.38238797
14	0xbea2bf6e	-0.31786674
15	0xbed84f4d	-0.42248002
16	0xbf11e9bf	-0.56997293
17	0xbeb3f769	-0.35149696
18	0xbe875337	-0.26430675
19	0xbf104f2c	-0.56370807
20	0xbf0380c2	-0.51368344
21	0xbf0649a3	-0.5245611
22	0xbefc8c70	-0.49325895
23	0xbe7354c3	-0.23762803
24	0xbebfeb22	-0.3748408
25	0xbf197922	-0.5995046
26	0xbe83e730	-0.2576232
27	0xbebf37cf	-0.37347266
28	0xbe9484b3	-0.2900749
29	0xbed6bc02	-0.41940314
30	0xbebd8401	-0.37014773
31	0xbeb1d0c5	-0.3472959

conv_layers.5.running_mean f4 [32]
0	0xbf7bc831	-0.9835234
1	0xbec4eb9f	-0.38461015
2	0xbeb0945d	-0.34488192
3	0x3f7d53ac	0.989558
4	0xbebeb5f0	-0.37248182
5	0xbe33ef72	-0.1757181
6	0xbe9691a8	-0.29408002
7	0xbf3b7e64	-0.7323973
8	0xbe76502d	-0.24054022
9	0xbf1127d6	-0.5670141
10	0xbf59f164	-0.8513396
11	0xbecfba96	-0.4057204
12	0x3db595ee	0.088664874
13	0xbf214dd8	-0.63009405
14	0xbf32da8b	-0.6986472
15	0xbe164062	-0.14672998
16	0xbf1b2713	-0.606065
17	0xbec93387	-0.39297125
18	0x3d085fe3	0.03329457
19	0x3ef9b773	0.48772773
20	0xbe55768f	-0.20846008
21	0xbf839e83	-1.0282749
22	0xbe575ae2	-0.21030763
23	0xbf1e50d5	-0.6184209
24	0xbdaee27f	-0.085392945
25	0x3acaf0f1	0.0015483183
26	0x3e0fe359	0.1405157
27	0x3d882824	0.06648281
28	0xbeaef693	-0.34172496
29	0xbf0d8b78	-0.5529094
30	0xbec52944	-0.38508046
31	0xbe9b7bd0	-0.303679

conv_layers.5.running_var f4 [32]
0	0x4066062e	3.5941272
1	0x400f1389	2.2355673
2	0x3feda64c	1.8566375
3	0x3fdcff9e	1.7265508
4	0x403a5a14	2.911748
5	0x3f85b1cc	1.0444884
6	0x3fa4140e	1.281862
7	0x3fffc268	1.9981203
8	0x40009e76	2.0096717
9	0x3fba898f	1.457323
10	0x400039a4	2.003518
11	0x402ae557	2.6702478
12	0x3fc960f3	1.5732712
13	0x4017c383	2.371308
14	0x4045f59a	3.0931153
15	0x3fac752f	1.3473262
16	0x3f880c9e	1.062885
17	0x3fb0bd3d	1.3807751
18	0x40412124	3.0176477
19	0x3f970cbc	1.1800761
20	0x3f8bafe4	1.0913053
21	0x3fe90fa7	1.8207902
22	0x3fcc0a48	1.5940638
23	0x4035dd70	2.8416405
24	0x3ff2fc11	1.8983175
25	0x3fedba3a	1.8572457
26	0x3fcfc64e	1.6232393
27	0x4008a80a	2.1352563
28	0x405400d3	3.3125503
29	0x40267699	2.6009886
30	0x40428641	3.0394442
31	0x40058910	2.0864906

fc_layers.0.weight f4 [128, 1568]
0	0x3c54fd94	0.012999911
1	0xbc98fb48	-0.018674508
2	0x3be6b7da	0.00704096
3	0x3c0cafbd	0.008586821
4	0x3c8f6280	0.017503023
5	0x3c377353	0.011196929
6	0x3c9b241f	0.018938122
7	0x3c28562c	0.010274451
8	0xbce27dbf	-0.027647851
9	0xbc607ed1	-0.01370211
10	0x3c6aba07	0.014326579
11	0xbc379583	-0.01120508
12	0xbcf9826a	-0.030457694
13	0x3c6f6692	0.014611857
14	0xbc2c4eec	-0.010516863
15	0xbcbbc18f	-0.022919444
16	0xbc9931d9	-0.018700527
17	0xbb8dd15e	-0.004327937
18	0xbc751cae	-0.014960451
19	0xbcc8380b	-0.024440786
20	0xbc9e9f4a	-0.019363064
21	0xbcd73a5e	-0.026272949
22	0xbb7e16fd	-0.0038771026
23	0xbb438222	-0.0029832204
24	0xbbd90421	-0.0066228067
25	0xbc03c728	-0.008043088
26	0xbcc513d9	-0.024057316
27	0x3b9ad63c	0.0047252458
28	0x3bf94030	0.0076065287
29	0x3ba0e56f	0.004910163
30	0x3b34969c	0.002755559
31	0xbcc09174	-0.023506857
32	0xbbdfc5c0	-0.0068289936
33	0xbce08e76	-0.02741168
34	0x3a0d0ec0	0.0005380921
35	0x3c9cf8ab	0.019161543
36	0xbc420b9e	-0.01184359
37	0xbca25d2d	-0.01981982
38	0xbb522d3f	-0.0032070426
39	0xbbd88635	-0.0066077956
40	0x3c6976b3	0.0142494915
41	0x3bb3a037	0.0054817456
42	0x3c540269	0.012940028
43	0x3c6a1f2d	0.014289659
44	0xbc7926e4	-0.015207026
45	0xbbb38ee9	-0.0054796827
46	0xbc625c91	-0.013816015
47	0xb9c2b699	-0.0003713861
48	0x3b041650	0.00201549
49	0x3c6dec28	0.014521636
50	0xbc4eb54e	-0.012616469
51	0xbc2bfc0a	-0.0104971025
52	0xbbc86e14	-0.006116638
53	0xbcb202f2	-0.02172992
54	0xbc1519ac	-0.009100359
55	0xbbfaf0c8	-0.007658098
56	0x3c4a7bad	0.012358588
57	0xbbcdc302	-0.0062793503
58	0x3c1207a2	0.008912953
59	0xbc6b814d	-0.014374089
60	0xbcfe3d7f	-0.031035183
61	0x3b46b79e	0.0030321847
62	0xbb2ad827	-0.0026068778
63	0xbc90305f	-0.01760119
64	0xbc91b3f6	-0.017786007
65	0xbbdd2ba5	-0.0067495876
66	0xbce00a42	-0.027348641
67	0x3aedaa43	0.0018132407
68	0xbc897b32	-0.016782377
69	0x3b9579ff	0.004561662
70	0x3a831ea0	0.0010003634
71	0xbb8210a3	-0.0039692684
72	0xbc8cf8c3	-0.017208463
73	0x3bc5253f	0.006016403
74	0xba3e34dd	-0.0007255802
75	0x3c8d7de3	0.017271942
76	0x3c69eee1	0.014278145
77	0x3c280bc4	0.010256711
78	0xbb9ee7ca	-0.0048494088
79	0xbab94874	-0.0014135973
80	0x3af6881f	0.0018808878
81	0x3c4c2e13	0.012462157
82	0x3b7c28ec	0.003847654
83	0x3c508ec4	0.0127293505
84	0xbb1a39fa	-0.0023533092
85	0x3b950943	0.004548223
86	0x3ba074be	0.0048967293
87	0xbca49853	-0.020092165
88	0x3c15ba00	0.009138584
89	0xbcb0cf72	-0.021583293
90	0x39a0dd45	0.00030682437
91	0x3b836dc7	0.004010889
92	0x3bb6c651	0.0055778404
93	0xbcaa7685	-0.020808468
94	0xbca53da7	-0.020171
95	0x3c34e387	0.011040575
96	0xbc96b86b	-0.018398484
97	0xbc6a932d	-0.014317316
98	0xbc144c14	-0.009051342
99	0xbcb15f0f	-0.021651773
100	0xbb65162f	-0.003495585
101	0x3c833484	0.016016252
102	0xbc1997d5	-0.0093745785
103	0x3c9d0c65	0.01917095
104	0x3c3cc6f3	0.011522043
105	0xbc9a5e66	-0.01884384
106	0x3b7ca804	0.0038552294
107	0xbc04701b	-0.008083369
108	0x3bd8bcbf	0.006614297
109	0xbcbd0ed3	-0.023078358
110	0x3b59aee2	0.003321581
111	0xbcc0850d	-0.023500944
112	0x3c3a3eec	0.011367541
113	0x3b3ff671	0.0029291178
114	0xbc97fbb3	-0.018552637
115	0x3be64cc7	0.0070281955
116	0x3b34649e	0.0027525793
117	0xbcfc5c8d	-0.03080585
118	0xbcc4bbd5	-0.024015347
119	0x3a58993e	0.0008262581
120	0x3c14563f	0.009053766
121	0x3bcd1417	0.0062584984
122	0xbcab93bc	-0.020944469
123	0xbd01eb77	-0.031718697
124	0xbc840014	-0.016113319
125	0xbc85be84	-0.016326196
126	0xbcb686d4	-0.022281088
127	0x3c8247eb	0.015903434
128	0xbc621fef	-0.013801559
129	0x3bb851c4	0.0056249816
130	0xbb868bdb	-0.0041060275
131	0x3bc24c9b	0.0059295422
132	0x3c85b6c3	0.0163225
133	0x3c93785f	0.018001733
134	0xbcc151b7	-0.023598535
135	0x3c6e7178	0.01455342
136	0xbbeb7040	-0.007185012
137	0xbc02ffc3	-0.007995549
138	0xbce07ced	-0.02740332
139	0xbcb43398	-0.021997258
140	0x3b1035aa	0.0022004643
141	0x3c1e0193	0.00964393
142	0x3bf72cec	0.007543197
143	0x3c8021a7	0.015641047
144	0x3bb5abb7	0.0055441516
145	0xbb8612ea	-0.00409161
146	0x3c36ad23	0.011149677
147	0x3c962a9e	0.018330868
148	0xbcb8ddf8	-0.02256678
149	0xbadeaa32	-0.0016987978
150	0x3c962935	0.018330196
151	0x3c0a1649	0.008428165
152	0xbcb4da5b	-0.022076776
153	0x3bee7ba8	0.0072779246
154	0x3ad56570	0.0016280841
155	0x3b39fd8a	0.002837988
156	0x3b01e56c	0.0019820584
157	0xbc8344d1	-0.016024025
158	0xbccb5e67	-0.024825288
159	0xbcb1d177	-0.021706326
160	0xbcb94e0d	-0.022620225
161	0x3b8c24b4	0.0042768363
162	0x3c65582e	0.013998074
163	0x3c8f2748	0.017474785
164	0xbcd45e57	-0.025923891
165	0xbc9e7196	-0.019341271
166	0xbb3ac6b0	-0.0028499775
167	0xb914fc53	-0.00014208378
168	0xbbae541f	-0.0053200866
169	0xbb0f512e	-0.0021868455
170	0xbcf4cc05	-0.02988244
171	0x3c633aee	0.01386903
172	0xbaad13fd	-0.001320481
173	0xbc1964f3	-0.009362447
174	0x3c0e63fa	0.008690828
175	0x3c289a2e	0.010290666
176	0xbc836b91	-0.016042503
177	0x3c5c1bf6	0.013434401
178	0xbd004e09	-0.03132442
179	0x3c1eed57	0.009700141
180	0x3aaab29c	0.00130232
181	0x3c2887aa	0.010286251
182	0xbcb00926	-0.021488737
183	0x3c13c26f	0.009018525
184	0x3c23246e	0.009957416
185	0xbc946312	-0.018113647
186	0xbc9a7c4d	-0.0188581
187	0xba0415d7	-0.0005038655
188	0x3c941773	0.018077588
189	0xbbdf392b	-0.006812235
190	0xbb1b6c0f	-0.002371553
191	0xbc0b9557	-0.008519492
192	0xbc3c1cf0	-0.011481509
193	0xbbe1133b	-0.0068687475
194	0xbc85c107	-0.016327394
195	0x3caf7422	0.021417681
196	0x3ac9be4b	0.0015391795
197	0xbc27890d	-0.010225547
198	0xbc6b6a2b	-0.014368574
199	0x3bd4791d	0.0064841644
200	0x3bec92bb	0.00721964
201	0xbb9ca793	-0.0047807186
202	0xbc4665ed	-0.012109262
203	0xbcf20ee0	-0.029548109
204	0xbc71d37b	-0.0147598935
205	0x3b86d26a	0.004114439
206	0xbc6e803d	-0.014556942
207	0x3b67a047	0.0035343335
208	0x3c30eb14	0.0107982345
209	0xbcbf7e40	-0.02337563
210	0xbca35cbf	-0.019941686
211	0x3c70194e	0.014654471
212	0xbc850582	-0.016237978
213	0x3c5bcc2c	0.013415378
214	0x3afa24ba	0.0019084432
215	0x3c90abfc	0.017660134
216	0xbcdf64fd	-0.027269835
217	0xbc8bd93e	-0.017071363
218	0xbcaab1aa	-0.02083667
219	0x3b6d4eeb	0.003621037
220	0x3c821800	0.015880585
221	0x3b6cfe67	0.0036162378
222	0xbcadd435	-0.021219352
223	0xb8253cf4	-3.9395833e-05
224	0x3c207009	0.009792336
225	0xbcf27d1c	-0.029600672
226	0xbcba5f79	-0.022750603
227	0x3b0ac96f	0.0021177193
228	0x3be1b142	0.006887586
229	0x3c4f7422	0.012661966
230	0xbce49456	-0.027902763
231	0xbc36e2a4	-0.011162434
232	0x3c896540	0.016771913
233	0x3a847c51	0.001010785
234	0xbcfed9f7	-0.031109793
235	0xbcf0327b	-0.029320946
236	0xbbd27a38	-0.006423261
237	0xbca5e115	-0.020248929
238	0x3c8a4ccb	0.01688232
239	0xbcba8d46	-0.022772443
240	0xbc167566	-0.009183263
241	0x3918c4df	0.0001456919
242	0xbbedb01d	-0.0072536604
243	0x3a0824f9	0.00051934976
244	0xba355596	-0.00069173553
245	0xbc1ae3e8	-0.009453751
246	0xbc3d253c	-0.011544522
247	0xbcba8cf8	-0.022772297
248	0xbcb02800	-0.021503448
249	0xbcfb6880	-0.030689478
250	0x3c93cb11	0.018041166
251	0xbbfcd718	-0.007716071
252	0xbb8043a4	-0.0039143134
253	0xbbcec5d0	-0.006310202
254	0xbc367c59	-0.011138045
255	0xbc73c861	-0.014879317

fc_layers.0.bias f4 [128]
0	0xbb697e06	-0.0035628094
1	0xbba66c38	-0.0050788186
2	0xbaf9f4ea	-0.0019070182
3	0xbd502c15	-0.05082329
4	0xbcd4cf0b	-0.025977632
5	0xbc6ef01c	-0.014583614
6	0xbd96c9ad	-0.07362685
7	0xbb0e4dc4	-0.0021713832
8	0x3cc3c42d	0.023897255
9	0xbd452111	-0.048127238
10	0xbcf1d1af	-0.02951893
11	0xbcdbef57	-0.026847525
12	0x3c83ae7a	0.016074408
13	0x3c59b6d4	0.0132882185
14	0x3ca6c910	0.020359546
15	0xbd81b8fd	-0.06334112
16	0xbd70b028	-0.058761746
17	0xbd049b4e	-0.032374673
18	0xbce43fc5	-0.027862439
19	0x3d33414f	0.043763455
20	0x3d3927be	0.045203917
21	0x3ba15733	0.004923725
22	0xbb66634e	-0.0035154405
23	0x3d0267ea	0.03183738
24	0xbc8cb49b	-0.017175963
25	0xbd5ee76f	-0.05441993
26	0xbc21403b	-0.009841974
27	0x3c0c75b0	0.008572981
28	0xbc103af6	-0.00880312
29	0x3d0aab20	0.033854604
30	0xbbaf367a	-0.0053470703
31	0x3adc1235	0.0016790094
32	0xbc2d24cb	-0.010567854
33	0xbd39703b	-0.045273047
34	0xbbafbb60	-0.005362913
35	0x3bf83e04	0.007575752
36	0x3cd7818e	0.026306894
37	0xbc4bf932	-0.0124495495
38	0xbd4de3e4	-0.05026616
39	0xbd0e1499	-0.034687612
40	0xbbc54d35	-0.0060211667
41	0xbbc45daf	-0.0059926133
42	0xbd208d89	-0.03919748
43	0x3d092c1a	0.033489324
44	0xb8cdf430	-9.820645e-05
45	0xbd5a080d	-0.053230334
46	0xba96ba60	-0.0011499636
47	0xbc878198	-0.016541287
48	0x3d3dae2e	0.04630869
49	0xbcead478	-0.028665766
50	0xbc1a76a9	-0.009427705
51	0xbb92780e	-0.004469878
52	0x3d31bc27	0.043392327
53	0x3cd21276	0.025643568
54	0xbd194809	-0.037422214
55	0xbd09c3c9	-0.03363398
56	0xbcda9169	-0.026680665
57	0xbd67035a	-0.05639968
58	0x3adeacd2	0.001698876
59	0x3c0d688a	0.008630881
60	0x3bce0def	0.006288282
61	0xbc5d887c	-0.01352131
62	0x3cd0f6d3	0.02550832
63	0x3b0e7a47	0.0021740363
64	0xbc9e034e	-0.019288685
65	0xbcc107d3	-0.023563301
66	0xbbd0ea62	-0.006375597
67	0xbc53e821	-0.012933762
68	0xbca3f9e6	-0.020016622
69	0xbb9be1f1	-0.004757159
70	0xbc343a7b	-0.011000271
71	0xbbff8f1f	-0.007799044
72	0xbc16574c	-0.009176087
73	0xbd478d4d	-0.04871874
74	0xbcb97525	-0.022638867
75	0x3c4d0f96	0.012515923
76	0xbcbf0569	-0.02331801
77	0xbceff9b9	-0.029293882
78	0x3c974383	0.01846481
79	0xbcb3befe	-0.021941658
80	0xbc5409a7	-0.012941754
81	0xbcf61109	-0.03003742
82	0xbd95c29b	-0.07312509
83	0x3b58bc55	0.003307124
84	0xbc63b41c	-0.013897922
85	0x3c58b514	0.013226766
86	0xbd8f02e4	-0.06982973
87	0x3d121bcc	0.03567104
88	0xbcf3fa1a	-0.029782344
89	0xbd1ff419	-0.03905115
90	0xbce5b591	-0.02804068
91	0x3b7852e0	0.0037891194
92	0xbbe8eaf7	-0.007108088
93	0xbcaf2046	-0.021377694
94	0xbd3efae3	-0.046625983
95	0x3ac31a3f	0.0014885141
96	0xbc92a66e	-0.017901625
97	0x3ca9d0d1	0.020729454
98	0xba28e964	-0.00064434693
99	0x3cd516ad	0.02601179
100	0x3c2886f4	0.010286082
101	0x3c884221	0.016633095
102	0xbd5e32db	-0.05424772
103	0x3d641fe0	0.05569446
104	0x3bab2e82	0.00522405
105	0xbcb7700a	-0.022392292
106	0xbce1dce0	-0.027571142
107	0x3bc177d1	0.005904176
108	0x3be87ad4	0.0070947204
109	0xbc384d19	-0.01124885
110	0x3b22c551	0.0024836848
111	0x3ccf6471	0.025316449
112	0x3d8769f4	0.06612006
113	0xbc0da7ed	-0.008645994
114	0xbc1cea2a	-0.009577313
115	0x3d4ee1a8	0.05050817
116	0xbcc5e189	-0.024155395
117	0xbd93378b	-0.07188328
118	0xbc98c68f	-0.018649368
119	0xbce924a1	-0.028459849
120	0x3cff2450	0.031145245
121	0x3c346488	0.011010297
122	0xbccac3c3	-0.02475155
123	0x3c2282a2	0.009918841
124	0x3b740a66	0.0037237643
125	0xbcbe8de2	-0.023261014
126	0x3d0eac8f	0.034832533
127	0xba7a38f7	-0.00095452316

fc_layers.3.weight f4 [10, 128]
0	0xbd8d256a	-0.06891902
1	0xbdc18960	-0.0945003
2	0xbdf80884	-0.12110999
3	0xbc9e9851	-0.01935974
4	0xbdf818c6	-0.121141
5	0xbc2e105a	-0.010624016
6	0xbe4bb28f	-0.19892333
7	0x3b1d66c9	0.0024017564
8	0xbd97d75b	-0.07414123
9	0x3d0d15b5	0.03444453
10	0xbd956eae	-0.07296501
11	0x3d13593f	0.035973784
12	0xbb472a09	-0.0030390045
13	0xbddd3f34	-0.10803071
14	0xbd48d0dd	-0.049027313
15	0xbd4004c2	-0.046879537
16	0xbe132b87	-0.14372073
17	0xbe1602f5	-0.14649566
18	0x3c8706b8	0.016482696
19	0x3d2167c6	0.039405607
20	0xbd2eceeb	-0.0426778
21	0xbdc8fb91	-0.098136075
22	0x3c269875	0.0101681845
23	0x3c9a1efd	0.018813604
24	0x3dd3114c	0.103060335
25	0x3df59203	0.1199074
26	0x3d8058e5	0.06266955
27	0x3da2d3ce	0.07950555
28	0xbd95ead2	-0.07320179
29	0xbdb0ab57	-0.086264305
30	0xbc293b4e	-0.010329081
31	0x3d824d7d	0.06362436
32	0x3c06c69a	0.008226061
33	0xbdc41de7	-0.09576016
34	0xbc55e85f	-0.01305589
35	0xbd9569c9	-0.072955675
36	0xbe06f65b	-0.13179915
37	0x3decea33	0.115681075
38	0xbe07d07e	-0.13263127
39	0x3c2c87e0	0.010530442
40	0x3dd212b7	0.10257476
41	0xbd334b22	-0.043772824
42	0xbd8e261a	-0.06940861
43	0xbe18059b	-0.14845888
44	0x3d78313e	0.060593836
45	0x3deaf95b	0.11473342
46	0x3dbf1a12	0.093311444
47	0x3c9752fe	0.018472191
48	0x3e5ed40d	0.21760578
49	0xbd886438	-0.0665974
50	0x3c5bd308	0.013417013
51	0x3e19ace8	0.15007365
52	0x3d85da7e	0.06535815
53	0xbbe0e411	-0.006863125
54	0xbe3456fa	-0.17611304
55	0x3ddaaf16	0.10677926
56	0xbdcf6f7b	-0.10128685
57	0x3cdb041e	0.026735362
58	0x3c4bf149	0.012447664
59	0x3d8b3874	0.06797877
60	0x3deef566	0.116679
61	0x3dc3f46c	0.09568104
62	0xbdda09b2	-0.106463805
63	0xbdbaa9ea	-0.0911444
64	0xbdeb3e5f	-0.11486506
65	0x3d7e9d06	0.062161468
66	0xbe0b04ea	-0.13576093
67	0x3d8e901e	0.06961082
68	0xbe0625c0	-0.13100338
69	0xbe02a41d	-0.12757917
70	0x3d63e08d	0.05563407
71	0x3e0766c2	0.13222793
72	0xbd4d592f	-0.05013388
73	0x3e22856b	0.15871207
74	0xbde9fd79	-0.11425299
75	0xbd97cde0	-0.074123144
76	0xb9284e06	-0.00016050795
77	0x3c8f0896	0.017460149
78	0x3df24e65	0.11831359
79	0xbd44ac76	-0.048016034
80	0x3d2eca41	0.042673353
81	0xbdb8123a	-0.089878514
82	0xbdd72e28	-0.105068505
83	0xbc2af216	-0.010433694
84	0xbc989ea3	-0.018630331
85	0xbd790ece	-0.060805134
86	0xbddc1fee	-0.107482776
87	0xbd23173a	-0.039817072
88	0xbcc3f815	-0.023922006
89	0xbd628354	-0.055301026
90	0xbdee6f66	-0.11642341
91	0xbd0398e5	-0.032128233
92	0xbd2831b2	-0.04106302
93	0x3d6b8de7	0.057508375
94	0xbd6b906e	-0.057510786
95	0xbdecc51a	-0.11561032
96	0x3d6be94f	0.057595547
97	0xbd457824	-0.04821028
98	0xbd5e6362	-0.054293998
99	0x3cdaf19f	0.026726542
100	0xbdab1b42	-0.083548084
101	0x3dbe9075	0.09304897
102	0x3db1e48e	0.086861715
103	0xbe2d9da0	-0.1695466
104	0xbe3ca49d	-0.1842217
105	0x3dad0791	0.08448709
106	0x3b91f0b2	0.004453742
107	0x3d623f78	0.05523631
108	0x3dbfb836	0.09361307
109	0xbe43b3e0	-0.19111586
110	0x3cfa3f78	0.030547842
111	0xbd14a1ef	-0.036287244
112	0xbe021e7c	-0.12706941
113	0xbd9d8ab7	-0.076924734
114	0x3bd042b3	0.0063556074
115	0xbdf7b451	-0.120949395
116	0x3d9115c9	0.07084233
117	0x3d2b7068	0.041855246
118	0xbc59945e	-0.013280002
119	0xbd024613	-0.03180511
120	0xbcf249fe	-0.029576298
121	0xbd598287	-0.053102996
122	0xbca3b383	-0.019983059
123	0x3caac8de	0.020847734
124	0x3c435f28	0.0119245425
125	0xbc1eb57d	-0.009686825
126	0xbda68161	-0.08130146
127	0xbda074db	-0.078347884
128	0xbcc7e8cb	-0.024402997
129	0xbceecd9d	-0.029150778
130	0xbe2b6ac1	-0.16739942
131	0xbe30c38a	-0.17262092
132	0xbe5005dd	-0.20314737
133	0xbe074cdf	-0.13212918
134	0xbe1842d9	-0.1486925
135	0xbdad47fb	-0.08460995
136	0x3e2ab567	0.16670762
137	0xbdc96b28	-0.098348916
138	0xbcd8c92b	-0.026463112
139	0xbc2c3e25	-0.010512863
140	0x3c686ca8	0.014186062
141	0x3cbe7bdc	0.02325242
142	0x3d014234	0.031557277
143	0xbda70a85	-0.08156303
144	0xbe097a1a	-0.13425484
145	0xbb15b724	-0.0022844756
146	0xbc25accf	-0.010112002
147	0x3e0cba72	0.13742998
148	0x3dd8419a	0.105593875
149	0xbdece8ed	-0.115678646
150	0xbd18f724	-0.037345067
151	0x3d0e85af	0.03479546
152	0x3ca0caf5	0.019628027
153	0xbd79819f	-0.060914632
154	0x3ce1203f	0.027481196
155	0xbd26a3e6	-0.04068365
156	0x3cd96ad5	0.0265402
157	0x3dc2dc80	0.09514713
158	0x3d058000	0.032592773
159	0xbdb39ff7	-0.08770745
160	0x3dbfa785	0.09358124
161	0xbd56fb42	-0.052485712
162	0xbc88a8c5	-0.016682038
163	0x3ca37971	0.019955369
164	0x3d06a31f	0.03287041
165	0x3de70fac	0.11282286
166	0xbcd1c667	-0.0256073
167	0x3c35671f	0.011071949
168	0xbdf19678	-0.11796278
169	0xbd1de4e0	-0.03854835
170	0xbe195c6d	-0.14976664
171	0x3dfaa80d	0.122390844
172	0x3d03404a	0.032043733
173	0xbe09804d	-0.13427849
174	0xbe23d96d	-0.1600091
175	0x3bfd154a	0.007723485
176	0x3d7a605d	0.061127055
177	0xbd185801	-0.037193302
178	0x3d539347	0.051654126
179	0xbde7fa0a	-0.11326988
180	0xbd64e8b5	-0.05588599
181	0x3dad7b34	0.08470765
182	0xbe139459	-0.14412059
183	0xbd0ee721	-0.03488839
184	0x3de7b7a9	0.11314327
185	0xbd8a54a1	-0.06754423
186	0x3d3f2306	0.04666426
187	0x3d85242f	0.06501042
188	0xbd81a3a0	-0.06330037
189	0xbc97ba9a	-0.018521596
190	0x3d482354	0.048861817
191	0x3cce3092	0.025169645
192	0x3deaffa9	0.114745446
193	0x3da4faf6	0.080556795
194	0x3d8ce3c9	0.06879384
195	0xbbfa7b03	-0.0076440587
196	0xbe13507e	-0.14386174
197	0xbdde302c	-0.10849032
198	0xbda7069b	-0.08155557
199	0x3c7c7424	0.015408549
200	0x3d1983e5	0.0374793
201	0xbb0a4b89	-0.0021102151
202	0x3d8cf090	0.06881821
203	0x3d857694	0.065167576
204	0x3b3360a0	0.0027370825
205	0x3d383994	0.044976786
206	0x3c6c712e	0.014431281
207	0x3cc1832e	0.023622122
208	0x3d463af1	0.048396055
209	0x3da68dec	0.08132538
210	0xbe2d0cf9	-0.1689948
211	0x3e153782	0.14571956
212	0x3d64a29a	0.05581913
213	0x3d9776a9	0.073956795
214	0xbd5c7051	-0.05381805
215	0x3dd3ace3	0.1033571
216	0xbd8b6b10	-0.0680753
217	0xbdafca7a	-0.08583541
218	0x3c8116fd	0.015758032
219	0xbd5e87c3	-0.05432869
220	0x3d14026f	0.036135133
221	0x3c981eed	0.018569434
222	0xbda4bc84	-0.08043769
223	0x3e04d341	0.12971212
224	0x3cb082f9	0.021546828
225	0x3e0fb7f0	0.1403501
226	0xbd778d03	-0.060437214
227	0xbd86ce88	-0.065823615
228	0x3d8ee1cb	0.0697666
229	0xbe0cf448	-0.13765061
230	0xbd942377	-0.07233327
231	0x3cb13e3c	0.021636121
232	0x3d8788de	0.06617902
233	0xbdfea2a5	-0.12433366
234	0xbcae12ab	-0.021249136
235	0xbd94b512	-0.07261099
236	0xbde02781	-0.10945035
237	0xbdae7da0	-0.08520055
238	0x3be5a04c	0.0070076343
239	0x3e4957ed	0.19662447
240	0x3e176114	0.14783126
241	0xbe0c7469	-0.13716282
242	0x3d07e4c6	0.03317716
243	0x3db902cf	0.09033739
244	0x3cedfef4	0.029052235
245	0xbdf89528	-0.12137824
246	0x3c8dee09	0.017325418
247	0xbd8d69d3	-0.0690495
248	0x3e1f54fc	0.15559763
249	0xbbfa4883	-0.0076380386
250	0xbd770db3	-0.0603158
251	0xbe1655dc	-0.1468119
252	0xbc916883	-0.01775003
253	0xbd7b2580	-0.06131506
254	0x3dfed0b2	0.12442149
255	0xbc887790	-0.016658574

fc_layers.3.bias f4 [10]
0	0x3dde023a	0.108402684
1	0x3c9fdfdd	0.019515926
2	0xbd79624c	-0.06088476
3	0x3d0597c8	0.032615453
4	0xbd7d5b09	-0.061854396
5	0x3d2ae870	0.041725576
6	0xbe02625a	-0.1273283
7	0x3b98d85d	0.0046644644
8	0xbdd63531	-0.10459364
9	0x3c20fcda	0.0098259095
