model_mnist_20241120_184959.pt (torch, 113880 bytes, 16 tensors)

conv_layers.0.weight f4 [8, 1, 3, 3]
000000 e6 70 ec be 5b e8 aa 3d 72 23 70 3e 99 36 f5 3b
       -0.46179885 0.083450995 0.23451021 0.007483315
000010 c9 98 46 3e 59 88 d6 3c a1 cc 0a 3e df ae 48 3c
       0.1939422 0.026188063 0.13554622 0.012248724
000020 34 76 01 bf eb c2 05 bf b4 ad 8a be a8 e8 e1 3d
       -0.5057099 -0.52250546 -0.2708565 0.11030704
000030 38 82 29 3e 8b a8 8a 3e 3f e8 d2 3e 31 77 b9 3e
       0.16553581 0.27081713 0.41192815 0.36223748
000040 1c df 8f 3d 30 40 71 be 6f 0a 7d be 8c 1f 96 3e
       0.070249766 -0.23559642 -0.24711011 0.29320943
000050 b0 92 a9 3e 28 91 ce bd a1 6c 88 3e 5b 12 1b be
       0.33119726 -0.1008628 0.26645377 -0.15143721
000060 a1 fb 96 bd 85 d2 c5 3e 24 d1 00 be 1e 7c ca 3e
       -0.07372213 0.38637176 -0.12579781 0.3954782
000070 58 11 97 be e0 50 ec be 2f 9c 82 3e be 34 63 3e
       -0.2950542 -0.46155453 0.25509784 0.22188088
000080 e5 d8 ab be 9c 47 95 bd ee 35 c8 3e c5 c6 4b 3e
       -0.33563915 -0.07289049 0.39103645 0.19900043
000090 51 4d b2 3e 59 73 8c 3e 05 fe 9d be 46 a2 f9 bc
       0.34824613 0.27431753 -0.30857864 -0.030472886
0000a0 b3 72 f2 3d 6e a3 cc be 96 4a 70 be 4f a9 c3 be
       0.118382834 -0.39968437 -0.23465952 -0.3821511
0000b0 06 65 d8 be c1 c3 f8 be 8b 7a 1f be 66 95 49 3e
       -0.42264575 -0.48586848 -0.1557409 0.19685897
0000c0 61 17 9c be 98 cc 80 3d 81 6c dc 3d 9b 24 e3 be
       -0.30486587 0.06289023 0.10762883 -0.44363865
0000d0 72 d7 c1 bd f6 06 a2 3e 1a 1f 3a 3d 25 38 de bd
       -0.09464921 0.31645936 0.045439817 -0.108505525
0000e0 29 cf eb be 93 33 ab 3e d3 76 81 be 09 68 d2 bd
       -0.46056488 0.33437786 -0.25285968 -0.102737494
0000f0 2d 06 8f be 4f 57 c1 be 3a e0 5c 3d 77 18 25 3e
       -0.279344 -0.37761924 0.053924777 0.16122614
000100 4f c4 51 3e d0 94 9f 3e d2 21 c7 be 99 40 3d 3e
       0.20485042 0.31168222 -0.3889299 0.18481673
000110 8e 77 32 bd 1b 19 ed be 19 09 e6 be e3 e1 d0 be
       -0.043571047 -0.46308216 -0.44928816 -0.40797338

conv_layers.0.bias f4 [8]
000000 f9 de 7c be 2a f3 e4 bc 7f 46 b8 3c 21 94 75 be
       -0.24694432 -0.02794798 0.022494553 -0.23982288
000010 70 d5 0d 3e 7c 30 76 be 9d 8e 9a be f1 07 69 bc
       0.13850951 -0.24041933 -0.3018693 -0.014223085

conv_layers.1.weight f4 [8]
000000 6c 7e 16 3f 1d 00 3b 3f c0 e0 2f 3f f2 2b 5f 3f
       0.58786654 0.7304705 0.68702316 0.8717643
000010 e5 1e 91 3f 51 0e 83 3f 71 c3 9e 3f 72 1a a5 3f
       1.1337553 1.0238744 1.2403394 1.2898695

conv_layers.1.bias f4 [8]
000000 03 5e 0f 3d 8e 0f 23 bf 1a 83 15 bf a0 bd 67 bf
       0.035001766 -0.6369561 -0.5840317 -0.9052372
000010 33 12 bb be 29 44 86 be 05 f5 50 be 4b de 64 be
       -0.36537322 -0.26223877 -0.20405968 -0.22350423

conv_layers.1.running_mean f4 [8]
000000 74 e6 89 be 92 df 2a bc 03 7d 59 3d 31 a1 64 be
       -0.26933634 -0.01042928 0.053097736 -0.22327115
000010 e6 9d 91 3d 46 01 95 be 5a 83 be be 72 a3 93 bd
       0.07110195 -0.29102534 -0.37209588 -0.07208909

conv_layers.1.running_var f4 [8]
000000 12 d2 40 3e 97 e3 01 3f a0 0d db 3e e9 fa f4 3e
       0.18830135 0.507379 0.42783833 0.4784768
000010 94 1d b3 3f ba 20 84 3f 18 25 8c 3f e0 ef 95 3f
       1.3993402 1.0322487 1.094882 1.1713829

conv_layers.4.weight f4 [16, 8, 3, 3]
000000 70 a8 00 3d 06 fa 87 bc 96 58 12 be 61 ff 26 bd
       0.031410635 -0.016598713 -0.14291605 -0.040770892
000010 6b 9d a2 bd 3e 50 f7 bd b6 4f 2a be f1 57 05 3d
       -0.07940181 -0.12075852 -0.1663197 0.03255457
000020 be dd 83 3d e3 a2 dc bd 1e 7a 12 be 6e 6c 7a be
       0.06438778 -0.10773256 -0.14304397 -0.24455425
000030 d0 13 5e bc d3 2e 5d bd 6e dd f7 3d 3f 99 ec bd
       -0.013554528 -0.053999733 0.12102781 -0.11552667
000040 9b a8 54 bd f5 3f 3f 3e 69 32 e1 bd 54 d4 f5 bc
       -0.051918607 0.18676741 -0.10995943 -0.030008473
000050 80 b2 64 be 9a 6a 4d 3d de 1b ba bd f8 b4 50 bb
       -0.22333717 0.05015049 -0.090873465 -0.0031846147
000060 6a f1 75 bd ca bc 29 3e 5a d0 92 3e 9d 08 83 3e
       -0.060044684 0.16575924 0.28674585 0.2559251
000070 b9 82 55 be 83 41 b8 be ed 15 b0 bd 88 a2 21 be
       -0.20850648 -0.3598748 -0.08597932 -0.15784657
000080 bb 3a e7 bc 65 87 91 be 40 d0 d4 3d 4b 51 fa 3d
       -0.028226247 -0.2842361 0.10391283 0.12222537
000090 a3 52 04 bd b3 ed 38 be c9 a8 10 be 4c 1f 39 3e
       -0.03230537 -0.18059425 -0.14126886 0.18078345
0000a0 ec 1d 3f 3e b1 83 97 3d f3 18 c4 be 54 22 7c bc
       0.18663758 0.07398165 -0.38300285 -0.015389044
0000b0 6f a7 e3 3d af c0 25 3d 68 60 5a be cd b2 cb be
       0.1111592 0.04046696 -0.21325839 -0.39784852
0000c0 4f 1d 10 be 06 40 13 3e bd 2e 0a 3e 90 97 2a be
       -0.1407368 0.14379892 0.13494392 -0.16659379
0000d0 ec 29 b2 3e 48 01 c5 3e ce 84 81 3e d7 8c 68 3e
       0.3479761 0.3847754 0.25296634 0.22709976
0000e0 d9 b5 7e bd 6f ae a9 3d 3f ad 88 3e b7 bc f1 bd
       -0.062185142 0.08285224 0.26694676 -0.118035726
0000f0 ae 91 c3 bd 5e 37 ab 3c c2 7a 69 bd de 37 e1 3d
       -0.095492706 0.020900425 -0.057001837 0.10996984
000100 28 83 b8 3b 7b b8 e0 3d 77 3f 2b 3e 0f 78 06 be
       0.0056308694 0.10972687 0.16723429 -0.13131736
000110 ae 63 54 3d ec dd 8b be 02 02 42 3d 2a d8 d7 3e
       0.051852874 -0.2731775 0.047365196 0.42157108
000120 07 50 0a bd 65 8d af 3d ff ca 5c 3e b7 f7 b0 3d
       -0.033767726 0.08571891 0.21561812 0.08640998
000130 29 15 f2 3d 46 04 c4 3d 17 90 9e 3d 8b e3 a7 3d
       0.11820442 0.095711276 0.07742327 0.08197697
000140 f0 29 47 bd fb 3c a4 3d c5 f1 0f 3e cd d2 28 3d
       -0.04862398 0.080194436 0.14057072 0.04121666
000150 04 62 92 3d 79 c0 fc 3d 6e ce d5 3d 1c 48 8f 3d
       0.07147601 0.12341399 0.10439764 0.06996176
000160 86 ef 6b bd 17 02 2b 3d c1 ad 32 bb e9 76 95 3d
       -0.057601474 0.04175004 -0.002726421 0.07298071
000170 bd a0 66 bd 24 fe 65 3e 25 81 45 3e 64 15 55 3d
       -0.056305636 0.22460228 0.19287546 0.052022353
000180 ab 1e 50 3e 7e ca f1 3d 5e 5c d5 bc 41 ba 47 be
       0.20324199 0.118062004 -0.02604502 -0.19504644
000190 bb 5c a8 be 59 ea 9f be db 0f de be 6c 47 37 be
       -0.32883248 -0.3123348 -0.43371472 -0.17898339
0001a0 cb 32 f9 bd 18 23 34 bd 3a be b2 3c ef 67 99 bd
       -0.12167891 -0.04397878 0.021819223 -0.07490527
0001b0 a7 3d 3d bd 32 08 4b bc a9 9f 65 3e 13 9c a3 bb
       -0.046201374 -0.012392091 0.22424187 -0.0049929707
0001c0 e7 13 d3 3d 4c 4a 5a 3d c7 8a 9d 3d 27 1b 2c be
       0.103065304 0.05329351 0.07692485 -0.16807233
0001d0 e9 d2 37 3d fd 49 56 3d 90 d8 96 bc 76 13 7b bd
       0.044878874 0.052316654 -0.018413812 -0.061297856
0001e0 9b 8b 18 3e 9f 8e be 3d 60 51 f0 3d 33 e0 e5 3d
       0.14897005 0.093045466 0.11734271 0.11224403
0001f0 18 72 b0 3d 79 db d5 3c 85 53 17 3e eb 5d 05 3d
       0.08615512 0.02610563 0.14777954 0.03256027
000200 06 10 e1 bb db 55 67 3e dd d8 32 3e c6 4b d4 3d
       -0.006868365 0.22591345 0.1746554 0.10366015
000210 c4 5e 33 3e 27 67 26 3e 0a 6c 8b 3d 0d c7 2a be
       0.17516619 0.16250287 0.06807716 -0.16677494
000220 fa a6 87 be fe 70 38 be 14 72 95 be 0c 8d b3 be
       -0.2649458 -0.18011853 -0.29188597 -0.35068548
000230 88 5b 16 be 10 8b 01 bf 78 8e b3 be b5 6a f1 bd
       -0.14683354 -0.5060282 -0.35069633 -0.11787931
000240 5b 76 27 3e b7 27 bd 3e ec be fe 3d 43 7f 27 3e
       0.16353743 0.36944363 0.12438759 0.1635714
000250 eb 56 cb 3d 4b 91 27 3e 53 9e e4 bd bd de 0d 3d
       0.09928688 0.16364019 -0.111630104 0.034636248
000260 8d 2b 35 be 55 bc 2c 3e 99 be 90 3e 78 6c 65 3e
       -0.17692395 0.16868718 0.28270414 0.22404659
000270 f8 9c 69 3e cf fb 67 3e 64 e4 0e 3e f0 7d 8a bd
       0.22813785 0.22654651 0.13954312 -0.06762302
000280 01 4f 9d bd 74 ac 42 3b 61 1d a0 3d 5a f2 2c 3d
       -0.076810844 0.002970484 0.078181036 0.042223312
000290 aa a7 72 3d 30 71 4c 3e 45 25 ab 3d 46 b4 58 bd
       0.05924193 0.19965053 0.08356718 -0.052906297
0002a0 64 5c 41 be a9 1a bc bd 5a 82 0d be 37 c1 1f bd
       -0.188829 -0.091847725 -0.13819256 -0.039002623
0002b0 cf 92 3f be 0c f5 58 bd 27 3b 57 be ed 32 24 bd
       -0.18708347 -0.05296807 -0.21018659 -0.04008763
0002c0 c4 6e 22 bd 2d 1e f6 3d 20 33 1e 3e dd 97 d6 3d
       -0.039656416 0.12017474 0.1544919 0.10478184
0002d0 45 53 ad bc d4 82 8c 3e 96 f3 68 3e e5 b0 07 3e
       -0.02115787 0.27443564 0.2274917 0.13251074
0002e0 67 37 b9 3e 7a 8f 85 3e a2 7f 2c bd 80 d5 15 be
       0.3617508 0.26086026 -0.042113908 -0.14632225
0002f0 5b b6 8b be 94 62 1c be 47 4f 07 3e 7f e0 7b bc
       -0.27287564 -0.1527198 0.13213836 -0.015373348
000300 ca 22 48 be 1e 80 8e 3d 3c d1 42 be 01 0e c1 bd
       -0.19544521 0.0695803 -0.19025129 -0.09426499
000310 52 6a ae bd 76 28 06 bf 5a 6a a8 3d 7f f6 2f 3e
       -0.08516373 -0.5240549 0.0822341 0.17183875
000320 5d 2c 85 3c fa b5 39 3e 91 e6 4a 3e 2b ce c9 3d
       0.016256506 0.18135825 0.19814517 0.098537765
000330 c6 12 21 be 68 03 a7 be 3f 4c 42 be ae a3 48 be
       -0.15729818 -0.32619786 -0.18974398 -0.19593689
000340 a1 b4 60 be 5e 89 91 bd 81 ab 5b be 52 b7 2d be
       -0.21943904 -0.07106279 -0.21452142 -0.16964462
000350 29 ec 4c bd 59 c8 85 3b 48 ef a0 3d af f9 b5 3c
       -0.050029907 0.004082721 0.07858139 0.022213785
000360 93 ec a8 bb 0a 5e c0 bd 4f 4d dd 3c a6 17 7c bd
       -0.005155155 -0.093929365 0.027014403 -0.06154599
000370 92 ef 75 3c ed b5 e6 3d 39 5d cf bc 8f f6 5f bd
       0.015010731 0.11265168 -0.025313007 -0.054678496
000380 f6 30 9a 3d 8d 0c 7e bb c8 52 5e 3c 43 4c 2d 3e
       0.0752887 -0.0038764805 0.013569541 0.16923623
000390 4e f1 a1 3d 66 7d eb 3d 28 ef 1a 3e 05 ca 43 be
       0.07907353 0.11498527 0.15130293 -0.19120033
0003a0 24 0b 2a be 5a 06 8e bd 00 3f e6 3b d6 59 20 be
       -0.16605812 -0.06934805 0.007026553 -0.1565927
0003b0 5a cc fe bd f5 a3 21 3d 34 5c 60 3d c0 72 0e 3c
       -0.12441321 0.039463002 0.05477543 0.008694351
0003c0 b0 bf c8 bd 9f a5 6d bd c1 13 cc 3d ff 85 f3 bc
       -0.098021865 -0.058019277 0.09964705 -0.02972698
0003d0 08 70 90 3d 1d 71 1c 3d 4c 93 bc 3d 2d a2 6e 3d
       0.07052618 0.03819381 0.09207782 0.05826013
0003e0 f1 f4 b0 bc 50 7e b2 bd f6 d6 77 be bb 31 80 be
       -0.021601172 -0.087154984 -0.24203095 -0.2503794
0003f0 02 b5 dd bd 99 f2 f1 bd 99 09 1f be 18 4c e2 bd
       -0.1082554 -0.1181385 -0.15531005 -0.1104967

conv_layers.4.bias f4 [16]
000000 ab 48 f7 bd 3a 78 18 be ea 09 9a 3d 18 bc 5a 3c
       -0.12074407 -0.14889613 0.07521422 0.013350509
000010 66 d9 23 3e 4d 00 a7 bd 59 73 70 bd c7 be 8a 3d
       0.160009 -0.08154354 -0.058703754 0.06774669
000020 1f 5d 03 bd 05 17 24 3e ab 7a 1b be e0 75 32 be
       -0.03207123 0.16024406 -0.15183513 -0.17427778
000030 42 ef f4 3d ea 3f 17 3e 7e 96 d7 3d a6 be 15 be
       0.11959697 0.14770475 0.10526751 -0.14623508

conv_layers.5.weight f4 [16]
000000 ab 70 81 3f a4 13 82 3f d6 14 6f 3f 6a 77 5a 3f
       1.0112509 1.0162244 0.9339117 0.8533846
000010 b4 34 6d 3f 4b c1 54 3f 4c df 57 3f c4 bf 2f 3f
       0.92658544 0.8310744 0.843251 0.68651986
000020 46 5b 88 3f 51 14 91 3f 4a 82 90 3f 31 6e 6e 3f
       1.0652854 1.1334325 1.1289761 0.9313689
000030 77 4c 93 3f 18 cb 75 3f 82 5c 68 3f 03 3a 6a 3f
       1.150771 0.9601302 0.90766156 0.9149477

conv_layers.5.bias f4 [16]
000000 60 bd b4 be f0 7e bd be ec ff 09 bf eb d4 a9 be
       -0.35300732 -0.37010908 -0.5390613 -0.33170256
000010 9f 76 d9 be e3 88 04 bf ed 12 05 bf 55 7f 24 bf
       -0.42473313 -0.5177137 -0.51982003 -0.64256793
000020 f8 fb bf be 33 61 fb be 2a c4 62 bf ac 9c aa bd
       -0.37496924 -0.49097595 -0.8858057 -0.08330664
000030 c4 2a b4 be 71 cb 85 be ec 0b f1 be 4a 47 11 bf
       -0.35188878 -0.26131776 -0.47079408 -0.56749403

conv_layers.5.running_mean f4 [16]
000000 dc 5d 04 be f7 c7 98 be 62 8a 55 3e ad d9 97 be
       -0.1292643 -0.2984006 0.2085357 -0.2965826
000010 f1 bd 49 3e 01 08 c1 3e fe 30 e3 be 8e 85 2a bf
       0.19701363 0.3770142 -0.44373316 -0.6661004
000020 b0 61 f1 be 64 2c 34 3f ab 2a 01 bf 93 a9 0d bf
       -0.47144842 0.70380235 -0.5045573 -0.55336875
000030 1e f5 30 3d 85 95 d6 bd 19 11 27 3f ab 50 86 be
       0.043202512 -0.10477737 0.65260464 -0.2623342

conv_layers.5.running_var f4 [16]
000000 e5 62 4f 3f ea 4e 7f 3f b4 c4 4c 3f f2 25 63 3f
       0.81010276 0.9972979 0.79987645 0.88729775
000010 a3 bb 3a 3f 34 bd 78 3f 93 0e 06 3f 13 9c d6 3e
       0.7294256 0.971637 0.5236599 0.4191595
000020 2f 0e 4d 3f f1 82 02 3f 67 e8 34 3f 8c 23 f9 3f
       0.8009977 0.5098105 0.7066712 1.9463973
000030 40 23 22 3f 1b 64 b7 3f a3 ba 3a 3f 71 fa 6e 3f
       0.6333504 1.4327425 0.72941035 0.93350893

fc_layers.0.weight f4 [32, 784]
000000 4c 5a 26 bd 94 9a a0 3c b5 47 0e 3d 56 75 73 3d
       -0.040613458 0.019604959 0.034736354 0.059438072
000010 16 ff b1 bc db 73 2e 3d 73 bb 64 bc c9 34 c7 3d
       -0.02172808 0.042590957 -0.013960707 0.09726865
000020 ad 81 8e 3d 3f 3e da 3d cc 11 70 3d 9a 40 c2 3c
       0.069583274 0.10656404 0.058610722 0.023712445
000030 ec f8 af 3d 9e de 99 bd d1 9d 20 be 13 e7 9b bd
       0.085924 -0.07513164 -0.15685202 -0.07612433
000040 91 3c 85 3c c5 29 43 be 22 da c0 bc f5 8d 07 3e
       0.016264232 -0.19058903 -0.023541514 0.13237746
000050 38 b0 fb bb f8 c4 d3 bd 9e a7 f8 bc 34 93 e7 3c
       -0.007680919 -0.10340303 -0.030353364 0.028268434
000060 dc 13 0a be e7 92 a5 bd 88 4a 29 bc 28 f9 96 3d
       -0.13484138 -0.0808466 -0.010332711 0.073717415
000070 ce 60 6c bd 36 7f d5 3d 6d 92 86 bb 53 64 51 bc
       -0.057709508 0.10424654 -0.004106811 -0.012780267
000080 f8 76 ce 3d e4 0f 26 be ab 3c ca bd d8 94 90 bd
       0.10081285 -0.16217 -0.09874853 -0.0705964
000090 e7 f3 4f 3e 72 b5 67 3e 0f 0a 4d 3e 4e 06 ba 3b
       0.20307885 0.2262781 0.20023368 0.005677021
0000a0 3a 28 34 bd 33 c7 80 3c c5 ba 78 bb e1 79 56 3d
       -0.043983676 0.015719986 -0.003795312 0.052362327
0000b0 80 d3 92 bc 39 9e 9c 3d b4 a8 32 3d d9 f8 35 bd
       -0.017923117 0.07647366 0.04361792 -0.044426773
0000c0 89 ba 89 bd 3e 21 61 3e 0a 4e 50 be 0c c7 05 be
       -0.06725032 0.21985337 -0.2034227 -0.13064212
0000d0 6f 33 c8 bd b9 82 79 bd d1 95 86 bc 5c 39 82 3d
       -0.09775435 -0.060915682 -0.01642886 0.06358597
0000e0 b7 12 82 3e 25 d1 bf b7 91 a5 8b 3c 78 2e 0b 3d
       0.25404903 -2.2866365e-05 0.017046722 0.033979863
0000f0 36 12 db 3d d8 90 29 3e 31 dd 81 3e 24 3d 9a 3d
       0.10696833 0.1655916 0.25364068 0.07531193
000100 f4 55 13 3d 36 42 17 3d 87 1a 22 3d 92 2b 13 3e
       0.035970643 0.036928378 0.03957608 0.1437209
000110 b2 1a fd 3d 07 78 91 3d b3 db 24 be bc f9 ee bd
       0.12358607 0.071029715 -0.16099434 -0.11668727
000120 82 cd 7c bd 8f 6c 02 be 78 05 9e bd 2a 34 02 be
       -0.061719425 -0.12736724 -0.07715887 -0.12715212
000130 a1 a6 9d bd 2d a1 5d be 7c 69 4e be e3 1a f6 bd
       -0.076977976 -0.21643515 -0.20157427 -0.12016847
000140 4c 8e 59 be 77 64 5d be 4d ab e9 bd 22 a7 d1 bd
       -0.21245688 -0.21620356 -0.11409626 -0.10236956
000150 c1 05 1b bd 82 64 f0 bc 8e 7b 3d 3c 14 f1 41 3b
       -0.037847284 -0.0293448 0.011565102 0.0029593157
000160 ef 5c a4 bd 8a 98 1e bd 0e cc 3c bd be 30 8f bd
       -0.08025538 -0.03871969 -0.04609304 -0.06991719
000170 44 1b e8 3b 9d 23 d7 bb 6b 76 54 3d 07 fa 8f 3d
       0.0070833284 -0.0065655247 0.051870745 0.07030111
000180 b3 b0 d8 3d 65 a2 f8 3d 28 ae 31 bc 81 e1 38 be
       0.10580578 0.12140349 -0.010844745 -0.18054773
000190 eb de ac be 7e c2 93 be 99 b0 2e be 35 1b 0b be
       -0.33763823 -0.28859323 -0.17059554 -0.13584597
0001a0 75 bd 08 be a9 0e 68 3c 06 62 35 3d 0a 9e 16 3d
       -0.13353522 0.0141636515 0.044282936 0.03677181
0001b0 8e 8b 01 bd ad e8 85 bd 38 2a 3f 3e 35 7e 0b 3e
       -0.03162723 -0.0653852 0.18668449 0.13622363
0001c0 47 9a 30 3e f0 a8 6a bb a5 90 a3 3d 84 dd c1 3d
       0.17246352 -0.003580626 0.07986573 0.09466079
0001d0 00 c6 7d 3e 19 15 9d 3e b2 11 21 3e 60 44 45 be
       0.24782562 0.3068016 0.15729406 -0.19264364
0001e0 b4 7a a4 bd ad dc ac 3d 7b 1f b5 3d 8f 9c a5 3d
       -0.08031216 0.08440528 0.08843895 0.08086502
0001f0 98 71 c8 3c 7c 2f 24 be 43 3f 8d bd 20 7e f5 bd
       0.024468228 -0.16033739 -0.06896832 -0.11986947
000200 90 78 e0 bd 79 b5 0f be b6 63 44 be f8 a1 df bd
       -0.109604955 -0.1403407 -0.19178662 -0.10919565
000210 e0 a0 95 bd 11 3f 58 bd 09 19 17 be f5 61 ed ba
       -0.07306075 -0.05279452 -0.14755644 -0.0018110859
000220 53 e5 4a 3e 44 c1 14 3e 06 71 da 3d a1 06 78 3d
       0.19814043 0.1452685 0.10666089 0.060553197
000230 15 53 c0 bc 56 9e 16 bd df af d6 3d 8b 62 e1 3d
       -0.023477117 -0.036772095 0.104827635 0.11005124
000240 31 a0 df 3d 73 77 e6 3d 91 dd bc 3d 81 2d 1b be
       0.10919226 0.11253252 0.09221948 -0.15154077
000250 be c3 2f be 28 cf fc bd 23 66 0c be af 2c 9e bd
       -0.17164513 -0.123441994 -0.13710837 -0.077233665
000260 c7 7b 01 be 43 b9 25 be 74 30 65 3c cf 5c 06 3e
       -0.12644874 -0.16183953 0.013988603 0.13121341
000270 7f bc cc 3c 76 96 28 3d ed 76 1e bc ce f7 8f bd
       0.024992226 0.041159116 -0.009671909 -0.07029687
000280 4a 89 6e 3d 8a f9 8f 3d f6 34 10 3d 1c c9 f7 3d
       0.058236398 0.07030018 0.035206757 0.120989054
000290 5f cb 34 3d 0d c5 8f 3c 98 68 f3 3c 13 2f 36 3e
       0.044139262 0.017550016 0.02971296 0.17791395
0002a0 32 80 41 3d 5d ec 26 3e d9 a1 33 3e 0e 36 25 3e
       0.047241397 0.16301103 0.17542209 0.16133901
0002b0 a9 7c b4 3d 59 02 24 be 00 e0 2e be c5 ed ee bd
       0.088128395 -0.1601652 -0.17077637 -0.11666445
0002c0 c0 03 04 3d e8 28 18 3c ec 43 f7 3b 58 36 d5 bd
       0.03223014 0.009287097 0.0075459387 -0.10410756
0002d0 2f 40 9f bd 0d 46 1f be 55 83 53 bc be d7 c6 3d
       -0.07775914 -0.15554066 -0.01290973 0.09709118
0002e0 a9 50 0f 3e 77 aa 8d 3d 22 97 26 bd 11 d3 b8 bd
       0.13995613 0.06917279 -0.040671475 -0.09024633
0002f0 ae c5 b0 bd d8 b8 9c 3d 93 63 af 3d 2a 02 0b 3c
       -0.086314544 0.07652444 0.08563914 0.008484403
000300 67 aa 23 3d 4a 43 a0 3c 9d bd 28 bd 06 7d fe 3c
       0.03995743 0.019563336 -0.041196454 0.031065475
000310 8a 23 60 bd 02 bc 5f be cc 85 d0 bd 05 2e 96 bd
       -0.054721393 -0.21849063 -0.1018177 -0.07332996
000320 37 d7 01 be 9b 79 8a 3a 03 80 a1 3d 99 c6 c4 3c
       -0.12679754 0.0010564806 0.078857444 0.02402048
000330 cb b2 a6 3d 69 42 56 3e f6 06 3b 3e 67 f6 fd 3d
       0.08139571 0.20923771 0.18264374 0.12400513
000340 b1 c3 dd 3d 31 a2 7f 3c 90 a2 f6 3c 55 e0 8a 3c
       0.10828341 0.015602634 0.030106813 0.016952673
000350 4f 89 06 3e 18 91 0a 3e da 05 55 3d e8 8c 86 bc
       0.13138317 0.13531911 0.052007534 -0.016424611
000360 6d 05 cc bd 22 22 34 be 65 d3 15 be ba 7c 55 bd
       -0.099619724 -0.17591146 -0.14631422 -0.0521209
000370 7e 5e 81 bd 99 00 19 be bd 95 39 bd d3 6a 97 bd
       -0.06316851 -0.14941634 -0.045308817 -0.07393422
000380 21 df f1 bd 7f 9d 6a be 46 f6 3f be 56 27 35 bd
       -0.118101366 -0.22911642 -0.1874629 -0.044226967
000390 95 cb c4 ba 35 21 42 3d 74 64 4a 3c c3 15 3e be
       -0.0015014285 0.04739495 0.012353051 -0.18562989
0003a0 07 93 c0 bd 13 32 8b bd 9e 56 72 3d d9 33 bc 3d
       -0.09403043 -0.0679666 0.059164636 0.09189577
0003b0 58 51 0a 3e a1 95 cd 3d ec 32 4f bd 8e aa 7c 3d
       0.13507593 0.10038305 -0.050585672 0.06168609
0003c0 7b d4 4c bb 5f 65 46 bd d4 84 12 be de e4 02 bb
       -0.0031254578 -0.04843652 -0.14308482 -0.0019972841
0003d0 9b 7d da 3d a2 a6 ba 3d bb c8 dd ba f3 00 0e be
       0.106684886 0.09113814 -0.0016920784 -0.1386755
0003e0 9d 94 f6 bd bd fb 14 be 63 ec 17 3d e7 23 8f 3b
       -0.120400645 -0.14549156 0.03709067 0.0043682936
0003f0 4e ef fe bc 8f ff ee 3d a2 18 e2 3d 91 5e ba 3c
       -0.031119969 0.11669838 0.110398546 0.02275017

fc_layers.0.bias f4 [32]
000000 58 42 c7 bc 88 d9 8d bd cf 01 2f bc 6e 30 9d 3d
       -0.024323627 -0.069262564 -0.010681584 0.07675253
000010 51 fb 08 be 6f af 34 3e 7c 85 b0 bb fb 08 1b 3e
       -0.1337712 0.17645048 -0.0053870063 0.15140145
000020 10 a7 90 3c 46 ff 04 be cc 1e 17 bd 34 20 81 bd
       0.017657787 -0.12988004 -0.036894605 -0.063049704
000030 46 b2 84 bd 6a 53 36 3d 6c 58 9f 3d 6c 8e 3e bc
       -0.064793155 0.044513144 0.07780537 -0.011630636
000040 1a d4 80 bc c6 80 ce bc e8 be 33 bd 20 ca 2b bd
       -0.015726138 -0.025207888 -0.043883234 -0.04194081
000050 f7 70 46 3d fb 96 99 3d 3e c5 53 bd 1f ee 3b bc
       0.048447575 0.074995 -0.051701777 -0.011470347
000060 d5 9a 6c 3c e6 5f a2 bb a0 5c 52 bd 34 0a df bd
       0.014441212 -0.0049552796 -0.051357865 -0.10890618
000070 78 39 06 3e 2d e8 dd 3d e1 1b b9 bd 89 59 ca bc
       0.1310786 0.108353 -0.090385206 -0.024700897

fc_layers.3.weight f4 [10, 32]
000000 07 19 58 be cd 88 0f 3e c7 81 91 3e 9c d5 a1 be
       -0.21103297 0.14017029 0.28419325 -0.31608284
000010 11 a0 5e be 88 7b 1c 3d 97 6c b1 bb a6 98 f3 bd
       -0.21740748 0.038203746 -0.0054145562 -0.1189435
000020 a3 41 17 3e af cb 03 be 19 5c 6e be d7 a4 1d 3e
       0.14771132 -0.12870668 -0.2327732 0.15394913
000030 46 a3 11 be db a7 b6 bd a6 9f 00 3e c1 86 99 3b
       -0.1422244 -0.08918735 0.12560901 0.0046852534
000040 e4 41 1b 3e 32 66 cb bd 5f e1 85 be b2 9b 52 be
       0.15161854 -0.099316016 -0.26148507 -0.20567206
000050 0f 24 ec bd 9d 5d 62 be f1 6e 06 3e 40 4f 70 3e
       -0.11530315 -0.22106023 0.13128258 0.23467731
000060 d9 ea 15 3e d5 d9 4a 3e 19 81 f3 3d 35 6a 28 be
       0.14640369 0.19809659 0.11889858 -0.16446765
000070 a7 9e 18 3e 5d 27 ab be 80 de 64 3d 82 7c 11 3e
       0.14904271 -0.3342847 0.055876255 0.14207652
000080 a8 8b 08 bd e9 12 93 be 31 36 11 3c ca 75 20 3c
       -0.03333631 -0.28725365 0.008863018 0.009793708
000090 21 a9 9e be 24 78 96 3e 49 13 cd 3e 20 d1 45 3e
       -0.3098841 0.29388535 0.40053776 0.19318056
0000a0 47 2b 88 bd 56 b7 8d 3d 63 27 70 be c7 fd 7c be
       -0.066488795 0.06919734 -0.23452525 -0.24706183
0000b0 6b bb 7a be 6a 60 d7 3d 97 c1 5e 3e d9 e0 3d 3d
       -0.24485557 0.105164364 0.21753536 0.04635701
0000c0 89 2f b9 bd 82 69 a7 bd 4b af 4c bd 4a 65 05 be
       -0.0904227 -0.08174421 -0.04997186 -0.1302692
0000d0 a9 f1 5b 3e 22 58 96 3e 04 e7 41 be 8e 8d 8b be
       0.21478905 0.29364115 -0.18935782 -0.27256435
0000e0 ac de 50 3d d6 31 41 3e 6f ed 17 be d2 20 8a be
       0.050993606 0.18866667 -0.14836667 -0.26978165
0000f0 6d d2 04 3e dc 68 08 3e 3b 06 35 bd ff 97 cf be
       0.12970896 0.1332125 -0.044195395 -0.4054565
000100 d5 23 a7 be 72 c3 a0 3d e0 fb 2d be ad b6 48 be
       -0.32644525 0.07849778 -0.16990614 -0.19600935
000110 0f 32 8b be 24 8d 84 be 1c 8f d2 be 79 fa 20 bd
       -0.2718663 -0.25888932 -0.4112481 -0.03930137
000120 bd 10 16 3e 7d 49 34 3d 25 45 86 3e 6c 3f 0b be
       0.14654823 0.044015396 0.26224628 -0.13598412
000130 76 55 5d 3d e4 33 5a be 20 e1 0e bc 74 6e 88 bd
       0.05403658 -0.21308857 -0.008720666 -0.06661692
000140 ed 24 fc bd d6 f6 9d be 77 0f ec 3d da f2 3c 3e
       -0.123117305 -0.30852383 0.11526387 0.18452016
000150 58 b1 19 3e 28 7b 86 3e ff 88 1a be 18 2b 27 be
       0.15009058 0.26265836 -0.15091322 -0.16325033
000160 4b 58 0c 3e 29 9d 0d 3e 25 b0 45 3e d5 5b 77 be
       0.13705556 0.13829483 0.19305475 -0.24156125
000170 b8 ac 49 3e 9b 51 07 be ba 67 35 3e ad 96 6d 3c
       0.19694793 -0.13214724 0.1771535 0.014501256
000180 97 b4 e6 3d f8 db be 3d 54 9e 2a be 9b 81 92 3e
       0.112649135 0.093192995 -0.1666196 0.28614506
000190 d8 ba ea be d8 1e ce bd ae 5e 1d be 34 19 73 3e
       -0.45845675 -0.10064477 -0.15368149 0.23740083
0001a0 11 e1 27 3e d2 2a 6e be 2b 01 3a be 3a e8 18 be
       0.1639445 -0.23258522 -0.18164508 -0.14932337
0001b0 67 69 e4 bd 7e 75 cd be e5 f1 8a 3d bc b5 1e be
       -0.111529164 -0.40128702 0.06784419 -0.15499014
0001c0 59 b5 b1 bd 9c 5b 23 be 52 cf e7 3d d0 6a 4f 3e
       -0.086771674 -0.15952915 0.1131884 0.2025559
0001d0 a2 16 94 be b6 e3 b4 bd c9 d2 89 be 83 8b ce bd
       -0.28923517 -0.08832495 -0.2691863 -0.100852035
0001e0 6f 74 9e bd 38 5c a1 be a9 67 2b 3e d8 00 1a be
       -0.07737052 -0.3151567 0.16738762 -0.15039384
0001f0 9c 9e 66 3e 45 df 33 be 47 de 9f be 1d 39 75 3d
       0.22521442 -0.1756564 -0.31224272 0.05986892
000200 c9 9f 35 3e 39 11 a0 be d1 b5 1e 3e 1c b4 b2 be
       0.17736734 -0.3126314 0.15499045 -0.34903038
000210 bd 37 43 3e b8 8d 54 be ea 0d a5 bd 30 0a e5 3c
       0.19064231 -0.20757186 -0.080592945 0.02795896
000220 ad 0b 61 3c a6 53 39 3d b0 e6 26 3c a0 2a 18 3e
       0.013735694 0.04524579 0.010186836 0.1486001
000230 67 e5 58 3e 20 07 ec bb df 6b 33 3e d3 93 2f 3d
       0.2118126 -0.007202998 0.17521618 0.042865586
000240 bd 5d 06 be 5e 7f da bd d4 09 12 3e e3 20 6d be
       -0.13121696 -0.106688246 0.14261562 -0.23157077
000250 88 28 62 3e c5 49 9c be 3c 82 a3 be b7 a2 82 be
       0.22085774 -0.30525032 -0.31935298 -0.25514767
000260 17 da 80 3d 36 2e 5a 3e 60 13 98 be d8 b1 cd 3d
       0.06291597 0.2130669 -0.29702282 0.10043687
000270 1c 7a 35 be 68 6f 31 3d 42 4c 3b 3e ea d1 d7 be
       -0.17722362 0.043319136 0.18290809 -0.4215234
000280 30 19 c0 3d e7 53 c1 3d 12 b1 a1 bd 9a 20 8e 3e
       0.09379804 0.09439831 -0.078951016 0.27759248
000290 00 73 fc bd 8f f4 7f bd cc a5 06 bd 88 82 3f bd
       -0.12326622 -0.06248909 -0.03287296 -0.046755344
0002a0 22 b9 39 3d c6 ab 04 3e ce 57 a3 bd 51 b4 51 be
       0.045342572 0.12956151 -0.07975732 -0.20478942
0002b0 a7 9c 5c 3e c1 bc b6 bc 12 9c 12 3e 19 45 52 3b
       0.21544133 -0.022306802 0.14317349 0.0032084642
0002c0 9b 1f 5a 3d a2 44 7b 3e dd 97 95 be f3 af 07 3e
       0.053252798 0.245379 -0.29217425 0.13250713
0002d0 5a a2 5b be aa fb 9a be 04 07 66 be bd f3 eb bd
       -0.21448651 -0.3027013 -0.22463614 -0.11521099
0002e0 d7 dc 11 be 06 b1 4e be dd b0 7e be 24 f0 78 3d
       -0.142444 -0.20184717 -0.24872155 0.06077589
0002f0 c0 40 6d 3d 18 05 5e 3e 94 bd c5 be 4b f2 06 3e
       0.05792308 0.2168163 -0.386212 0.13178365
000300 85 82 73 be 8c 57 0c 3e 90 9f 5c 3e 7f fe d4 bd
       -0.23780258 0.13705271 0.21545243 -0.10400104
000310 6a 34 39 3e f6 70 a9 be aa 28 14 3e 8b c8 a9 be
       0.180864 -0.33093995 0.14468637 -0.33160815
000320 e7 05 1a bc ed ac 8d 3e 96 79 92 3e 0c ad 97 be
       -0.009400821 0.27670994 0.28608388 -0.29624212
000330 85 4c 79 be d7 de 1b 3e 5b a1 6f 3e 45 6d 53 3c
       -0.24345596 0.15221725 0.23401396 0.01290447
000340 6b 1b 0a be 32 6b 03 3e 79 0b 07 bf 6a 07 bf be
       -0.13487022 0.1283386 -0.5275188 -0.37310344
000350 4e 2b 42 be 1b f5 07 be be 06 b7 be 9e a3 50 3e
       -0.18961832 -0.13277094 -0.3574733 0.20374915
000360 19 ac dc bd 60 0c 22 3e 7f 26 90 be ce 81 48 3c
       -0.107750125 0.15825033 -0.2815437 0.012237979
000370 e2 5a c8 3d df 6d a1 3d 6e 0f 0d be e7 d5 be 3d
       0.097829595 0.078822844 -0.13775417 0.093181424
000380 ba af be bd e2 ed df be d4 ce 60 3e 19 3f 3e 3b
       -0.09310861 -0.43736178 0.21953899 0.0029029308
000390 47 7a 29 be 7e 1e 4f 3e 5c 75 43 3e ab 74 71 3e
       -0.16550551 0.20226476 0.19087738 0.23579662
0003a0 74 1f a8 3d ff 9e d3 3c 6f ff 1b be 33 5c 21 3e
       0.08209124 0.025832651 -0.15234159 0.15757827
0003b0 52 19 3b be 09 fc e2 be bc 18 e7 be 8b 4f 41 3d
       -0.18271378 -0.44332913 -0.45136058 0.047195
0003c0 e4 b9 16 3e fa 6d bc be c8 55 41 3e fb 6c 35 3e
       0.14719349 -0.36802655 0.18880379 0.17717354
0003d0 9a 36 82 3e 28 d9 78 3e a6 c5 92 3d 63 90 82 be
       0.25432283 0.24301589 0.07166605 -0.25500783
0003e0 fc 8a ff 3d 57 2c 97 be 36 7e 27 bc fc 6d 04 3e
       0.12477681 -0.29526016 -0.010222962 0.1293258
0003f0 6d c8 90 3d 60 29 ad 3d d1 bd 69 bd 41 e2 d6 ba
       0.07069478 0.08455157 -0.05706579 -0.0016394333

fc_layers.3.bias f4 [10]
000000 8a a3 23 be 48 06 28 3e 40 57 d8 bc 1e 2f 1f bd
       -0.15980354 0.16408646 -0.026408792 -0.038863294
000010 51 07 7f be 27 c5 bd 3d 83 fc 18 be 82 ac 4a be
       -0.24905135 0.092661195 -0.14940076 -0.19792369
000020 7a a7 45 3e 41 78 ab 3c
       0.19302168 0.020931365
