model_mnist_20241120_191204.pt (torch, 46872 bytes, 16 tensors)

conv_layers.0.weight f4 [4, 1, 3, 3]
00000000: eb4f 2ebf 8927 debe 1585 bfbe c9a2 b03d
00000010: a9a7 1ebd de8c cfbe f780 233e 2afc cf3e
00000020: 5d36 97bd 5b7c 063f ff03 25be dd04 18bf
00000030: c7ac 003f d4be 1b3e 02f7 13bf 0eed d63e
00000040: 588c 023f 8c92 093e 380e 7a3e 86b4 79ba
00000050: 2866 0bbf 72b7 993e c65c 82bc dae4 0abf
00000060: 7d75 56be d5ad 01bf bd36 e9be b4ba 183e
00000070: bff6 44bf 1afe 01bf cb29 08be b471 e1be
00000080: fb8e c83e 146c 313e b962 e33e 6d56 2b3f
-0.68090695 -0.43389538 -0.3740622 0.08624799 -0.038734112 -0.4053716 0.15967165 0.40622073
-0.07383416 0.525335 -0.16114806 -0.5938242 0.5026364 0.15209514 -0.5779878 0.41977733
0.509954 0.1343481 0.24419487 -0.0009525496 -0.54452753 0.3002277 -0.015913378 -0.5425545
-0.20943256 -0.5065587 -0.45549574 0.14914972 -0.76939005 -0.50778353 -0.13297193 -0.4403206
0.39171585 0.17326385 0.44411257 0.6692875

conv_layers.0.bias f4 [4]
00000000: 7555 95be b244 babd c824 543e bb74 a33d
-0.2916676 -0.09095134 0.20717156 0.07981249

conv_layers.1.weight f4 [4]
00000000: 73cb a83f 95fe 8b3f 7576 b93f b797 4f3f
1.3187088 1.0937067 1.4489275 0.81090873

conv_layers.1.bias f4 [4]
00000000: cb1d f53d caa5 31be 6bd3 343c 887c 7ebc
0.11968573 -0.173484 0.011036734 -0.01553262

conv_layers.1.running_mean f4 [4]
00000000: a2d8 90be f0be cebd 9a8a 623e 40f2 c03d
-0.28290278 -0.10095012 0.22123185 0.094212055

conv_layers.1.running_var f4 [4]
00000000: 6070 d33f 0c45 d23f e47a 2840 4ef9 a53f
1.6518669 1.6427321 2.6325006 1.2966707

conv_layers.4.weight f4 [8, 4, 3, 3]
00000000: 5f26 233f 3219 8a3e 1a2e 903e 1f98 5fbd
00000010: 3421 15bd 2b52 91be 5a24 ed3e 06ee 70be
00000020: e683 4a3e babe 253e 7f47 263e 6208 aabd
00000030: 96f4 063e 3b06 a33c 1b17 83be ef90 4fbf
00000040: 7c91 37bf cc7d 09bf c614 6abe cb9a 9abd
00000050: 0da8 88be d332 09be b71c c8bc 31a5 913d
00000060: 1588 cfbe 3986 1dbe 4324 203f 08b5 943e
00000070: ed99 a83e 0093 e33e 4cb5 68be 2de3 953e
00000080: ceee 4fbe a7cc 48bf 6fcb f8be 7324 8c3d
00000090: b22b 6cbe 77dd 263f 1d13 953e 4c77 8cbe
000000a0: 1ac9 cfbe 448e f6bd cbc7 a9be 9af8 4dbf
000000b0: 49eb 65be a01a ffbe 6c7d e4be f743 45be
000000c0: 1fb2 0c3d 31d4 243e 9825 28be 3df0 173e
000000d0: 0f47 e8bd f536 ffbe 331b f03d 6f25 13bf
000000e0: d94d 32bf c7d8 84be fb44 383d ff46 44be
000000f0: 317d ba3e 3dc1 9a3e fc8f 403e e7b6 a5bd
00000100: fdbf cc3e 2db0 bc3e 5932 2f3f 209d bb3e
00000110: 7371 c6bd 0a4a 15be 5128 31be 5f95 d0bc
00000120: 6a17 af3d 00b9 4dbf a1f3 4fbf 56af 94be
00000130: 3fd7 49bf 9022 dfbe 5cb2 5cbd 0bd6 27bf
00000140: 1f50 0c3e a89d 3fbe 32db 723e 5e90 e6be
00000150: 04cf 3ebe 2b66 0c3f bd91 733e f297 9fbd
00000160: f413 d93e f478 da3e d0db c23e 1c7e e83e
00000170: aa83 7f3e 148b 5cbd 5807 813e 1188 113e
00000180: acba 76be d630 54be 7616 7dbf 04ab bdbe
00000190: 3d36 da3e 368b 7d3e 2b59 b7be 7069 50bd
000001a0: fdae 5d3e 4a1f 81be 0287 c7be 3411 cd3e
000001b0: 7eba 413d f7f3 adbd 3822 e13e 4915 5f3e
000001c0: 8eee 1bbd 9a6e b53c 7602 983e bb4a b13e
000001d0: cc10 f1bc b9fd 00bf 274a 94bc e922 2c3f
000001e0: ba18 6fbf 2845 103d 775e d63e d560 11bf
000001f0: cab5 87be 83f2 2c3e 2a9d c0bd e488 ddbe
00000200: 906c c3bd fae6 b43b 4537 13bf a9f4 4dbd
00000210: e7bc 8abc 06c6 c2bd da1f 8ebe 4ff1 b8be
00000220: 2865 08bf d6a0 b8bd 405c f2be d858 04bf
00000230: 440b ee3c dc40 24bf 8aa5 1abf 1dd8 1dbe
00000240: 9784 c03d 1e5a 453e cd67 86be 0a48 efbd
00000250: f7a6 183d d1a3 9fbe f59c fabd c9da 2fbe
00000260: c3be 35be e4fe 2bbf aaae 8bbe 650e 173e
00000270: 3378 43bf dec3 1a3d 8683 8b3e 30bc 4fbe
00000280: 6de9 843e 95ab 133e 9b44 603e f30b 76bd
00000290: 3d2b 833d 9c41 a3bd a42c e03c d8b7 143f
000002a0: e2d3 29be ef6a 37bd c7d5 3c3f ad2b b03c
000002b0: c755 363e ad96 bdbe 470a 163e 92b4 3d3e
000002c0: 35c4 cdbe aca8 453e 133f 37bd 3b61 2cbf
000002d0: e492 a83f be1c ae3f 5010 3c3e aa1e b63d
000002e0: a1a3 8f3e 17b3 193f a750 20bd 2b6e 3cbe
000002f0: 94a2 a93c a96c 41be 778d 27bf d466 28bf
00000300: 96db 303e 9f32 bf3b cbdf b6bd d8a9 abbd
00000310: 396b 1f3f 8dc4 1b3f 2f8b fbbe 1ac1 47be
00000320: fb02 2abf 6485 803e 2ac2 95be 0723 92be
00000330: 96a5 57bb 9139 95bd f658 bbbe 4cfa 84b9
00000340: b218 2bbf f2e1 15bf 6e24 17be 9bfa 7ebe
00000350: f9f8 cebe 9a30 9abe cf2c 03be 2e02 d63c
00000360: 1bce 813e db14 943d 7b02 b3bd 3483 aebd
00000370: 7b7b 823d 7287 853e 38cc 02bc c1d4 d33d
00000380: b5bf 51be a05d 5ebe e1ca 223f 0575 803e
00000390: 2b75 2fbc e742 95be ec31 23bd c8ff bb3e
000003a0: e2f6 9fbe 40b8 32be 197f 52bf ea92 05bf
000003b0: cc42 22bf 4a10 5d3e d4e4 d6be 0633 2cbf
000003c0: f95a fe3e 8142 47bd d579 59be 830a 6d3e
000003d0: bd07 7e3e 4599 2b3e 449d 31be e7dc c0be
000003e0: 33a7 943d 03d4 853e c10e fa3e 7244 aa3e
000003f0: 5bc2 6ebf fd4f 3fbf 0d3e 14bf 29e5 ddbe
0.63730425 0.26972347 0.28160173 -0.054588433 -0.036408618 -0.28383002 0.46316797 -0.23528299
0.19776878 0.16186038 0.16238211 -0.0830238 0.1317924 0.019900432 -0.25603566 -0.81080526
-0.71706367 -0.53707576 -0.22859487 -0.07549056 -0.26690713 -0.13398294 -0.024427755 0.07111586
-0.4053351 -0.15383233 0.6255533 0.29044366 0.32929936 0.4444809 -0.2272541 0.29274884
-0.2030594 -0.78437275 -0.48592708 0.0684289 -0.23063543 0.6518168 0.29116145 -0.27434766
-0.40583116 -0.12038854 -0.33160242 -0.8045746 -0.22453035 -0.49825 -0.4462694 -0.19264208
0.034349557 0.1609657 -0.16420591 0.14837737 -0.11341678 -0.49846616 0.11723938 -0.57478994
-0.69650036 -0.25946638 0.04498766 -0.19167708 0.36423638 0.30225554 0.18804926 -0.080915265
0.39990225 0.3685316 0.684362 0.36643314 -0.096896075 -0.14579025 -0.17300536 -0.02546185
0.08549388 -0.8036041 -0.81231123 -0.2904002 -0.78844064 -0.43581057 -0.053881034 -0.6556098
0.13702439 -0.18712485 0.23716429 -0.45032018 -0.18633658 0.54843396 0.23786063 -0.07792653
0.42398036 0.42670405 0.3805833 0.45408714 0.2495257 -0.053843573 0.25200915 0.14212061
-0.24094647 -0.20721754 -0.988624 -0.37044537 0.42619506 0.24760136 -0.35810217 -0.050881803
0.21648784 -0.25219184 -0.3897019 0.40052187 0.047296993 -0.08493798 0.4397142 0.21785463
-0.0380693 0.022147465 0.29689378 0.34627327 -0.029426955 -0.5038715 -0.018101765 0.6724077
-0.93397105 0.035222203 0.41868946 -0.5678838 -0.26505882 0.16889386 -0.09404977 -0.43268502
-0.09542191 0.0055206986 -0.5750621 -0.050282154 -0.016935779 -0.09510426 -0.27758676 -0.36121604
-0.5327935 -0.09015052 -0.47336006 -0.51698065 0.029058106 -0.6416147 -0.6040884 -0.15414472
0.094002895 0.19272658 -0.2625107 -0.11683662 0.037268605 -0.3117967 -0.122369684 -0.17173304
-0.17748551 -0.6718581 -0.27281696 0.14751585 -0.76355284 0.03778445 0.27248782 -0.20286632
0.2595934 0.14420922 0.21901171 -0.06006999 0.064047314 -0.07971498 0.027365036 0.58093023
-0.16584733 -0.044779714 0.737637 0.021505201 0.17806159 -0.3702902 0.14652358 0.18525913
-0.40188757 0.19302624 -0.044737887 -0.6733586 1.3169827 1.3602521 0.18365598 0.088925675
0.28054526 0.60038894 -0.039139416 -0.184014 0.020707406 -0.18889107 -0.65450233 -0.65781903
0.17271265 0.005834892 -0.08929404 -0.083820045 0.62272984 0.6084679 -0.49129626 -0.19507256
-0.664108 0.2510177 -0.29249698 -0.2854235 -0.0032905093 -0.072863705 -0.3659131 -0.00025363488
-0.6683456 -0.5854789 -0.1475999 -0.24900286 -0.40424326 -0.30115205 -0.12810062 0.026124086
0.25352558 0.0723054 -0.087407075 -0.08521119 0.06371208 0.260799 -0.00798326 0.10343314
-0.20483287 -0.21715403 0.6359082 0.2508928 -0.010709087 -0.29152605 -0.03984253 0.36718583
-0.31243044 -0.17453098 -0.82225186 -0.521773 -0.63383174 0.21588245 -0.41971457 -0.67265356
0.49678782 -0.048647407 -0.21237881 0.23148541 0.2480764 0.16757686 -0.17345148 -0.37668535
0.07258453 0.26138315 0.4883938 0.33255345 -0.9326531 -0.7473143 -0.5790718 -0.43338898

conv_layers.4.bias f4 [8]
00000000: 4eaa 19be 792f d2be 819d 0bbf 2c71 f73d
00000010: b038 343e 9c2c 4c3e c26c a9bd e971 eebe
-0.15006372 -0.41051844 -0.54537207 0.12082133 0.1759975 0.19938892 -0.08272697 -0.46571282

conv_layers.5.weight f4 [8]
00000000: 7a51 943f 2866 253f c4ab 4b3f cd42 533f
00000010: 6261 833f 3ba1 7c3f f6f6 133f 22f7 383f
1.1587365 0.64609003 0.7955897 0.82523805 1.0264094 0.9868352 0.5779871 0.72252095

conv_layers.5.bias f4 [8]
00000000: f208 28bf a1a2 f5be 2c19 9abf 74a1 c6be
00000010: 0b06 10bf 5acc 24bf e410 5cbf 6d9d 67bf
-0.6563865 -0.47975639 -1.2038932 -0.38795054 -0.5625922 -0.64374316 -0.85963273 -0.9047459

conv_layers.5.running_mean f4 [8]
00000000: d59d 64bf a482 06c0 055a 16c0 6465 e2bf
00000010: f265 debe 0a1f 883e e97e 4fbf f56f 3ac0
-0.8930333 -2.1017237 -2.3492444 -1.7687192 -0.43437153 0.2658618 -0.81053025 -2.9130833

conv_layers.5.running_var f4 [8]
00000000: 3d70 ae40 2253 1440 0fea 0840 eebe 0541
00000010: 84bc 6f40 3d86 9c40 000d f23f 9976 4b40
5.451201 2.317574 2.1392858 8.359114 3.745881 4.8913865 1.8910217 3.1791136

fc_layers.0.weight f4 [24, 392]
00000000: 1835 d63d eef6 5cbe ce30 523d d7be ff3d
00000010: 5f67 cb3c 1486 40be f7fd 83be 3f33 29be
00000020: 212e ac3d 5a9d 3e3e aaee 8cbd 253c 10be
00000030: f17c 20be b8df 2ebe 2e3e 973d 7c12 503e
00000040: 0325 70bd 3ed3 90be 08ca a0be 09c1 20be
00000050: 476f 763e 6849 13bc df2a 2ebe 2731 33be
00000060: a346 5f3d abd7 02bc 9eb7 0e3f 6f62 9b3d
00000070: 1804 cd3e e867 8dbd 0c03 60be 5f78 1e3c
00000080: 6fd9 b23d 974c 2a3f a2f2 893f c571 98bd
00000090: ce37 89bc 972f 5bbd e2fa b3bd 32fd 1b3e
000000a0: 1eff 153f bcaa eb3e d85d d8bd 6652 6dbe
000000b0: 61c7 90be 25ab b3be ec14 f9bd 41af 1a3e
000000c0: 8dbe 39be 5a50 29be d8f9 93be d2b8 2dbe
000000d0: 9d42 0dbe af6a 39be 64d5 48be 2a5b afbd
000000e0: d744 58be 4d6b 95be fa44 a0bd ce75 78be
000000f0: a090 6ebe 3b38 2e3e d48d 9b3e 9f7c 71be
00000100: 7f30 cebe 9ede c8be 82db bdbe 3f4b 09bd
00000110: d105 a53e a152 073e 4a7b b83e 83ce ef3e
00000120: 7269 103e 6f95 0fbe a0b3 ba3c 2af9 333e
00000130: a73a cc3d 437e 373f f0b3 653f 149b 2c3d
00000140: bfb9 febd 5325 cdbd ac64 003e 3fb9 6d3e
00000150: 8bf5 fcbb 49f2 bfbd 198e bb3c 6ae5 7cbe
00000160: 612b 94be 1380 94bd a13a b03d 486b 98be
00000170: 7f89 febd 13d2 8abe aa28 f3be 6de9 b2be
00000180: 7a19 07be f60e 5bbe c88a 99bd 58ba 98bd
00000190: 4056 aabd 0fa3 a4bc 86dc abbd 8265 90bd
000001a0: 81b8 9c3c f017 c2bb 51ee 46be ba56 b13d
000001b0: f71f 333e 5b95 0dbd f982 e93c 15df 2cbe
000001c0: 6068 5dbe 3c3f b8bd 12da 42bd 6813 883d
000001d0: de66 a33e 759b 773e f205 69be b2d9 03be
000001e0: d6fc 87bd 15b6 31be 78e2 30be c12e 323e
000001f0: 5a30 723e c6d8 1dbe 7ffe e63d 3f45 da3a
00000200: 52e6 0bbc e45e e43d 6ec9 063c f662 a6bd
00000210: 68ec 6dbe 671d a03d bc8a 033e 7f29 08be
00000220: e939 b33d b6c3 c23c c508 c33d 07e8 19be
00000230: 0148 15be c81c 68bd 4147 38be a57e f8bd
00000240: fc5c 0bbb b8ea 03bd d9f2 dd3c b09e 83bc
00000250: 8b11 5cbd 9f0a 96bb 61f2 7a3c 7bc5 5c3e
00000260: 0f16 fb3d 059e b33d 489d 653d e760 183e
00000270: 3a33 b73e 2209 9e3e 2ce2 a13e 8506 803d
00000280: 8cb7 86bd 5d3b 843d 3c6d 6a3e 8396 e83e
00000290: 8d92 0d3f 274a 443e d34e 033d bad8 09bd
000002a0: d8d7 e4bd 56cd 2dbe 25bf c3be 068c 9dbe
000002b0: 3ada b9be dd1f 0cbd b6bf fabd b3ca 1dbd
000002c0: 9135 27be 0f71 e2be 2fcf 66be e7b1 d43d
000002d0: fb08 d43e 7b3b 63bc 5d75 3cbd a17d 4cbe
000002e0: 1c38 69bd 887c 9c3e 1dd2 0b3f 332b 813e
000002f0: 57c9 3b3d 5a74 24bd edf9 07be e08d 06bd
00000300: 052b b23e 4125 dd3d b623 bdbd 8efc 8ebc
00000310: 2cc9 813d 61b3 933d 5830 a63d 27d5 463e
00000320: 83b0 b43d 8e80 9e3c b576 2f3d 849c d13d
00000330: 5d3f 403d eb46 b23e 9552 ff3e 46a6 233f
00000340: e677 423f 329d 4f3e 4904 10be bfe2 0cbe
00000350: e60c cd3c eb0f 163e 451a 9f3e 43f0 023f
00000360: fbb4 4f3e a85a e4bd c00f 1fbe d4c5 d7bd
00000370: b984 f0bd 6e88 713d 8b89 e4bc be64 90bd
00000380: a39c 403e 48f8 a43e 1c98 893e 4e44 46be
00000390: 4c7e abbe 8772 9cbe 043b 3fbe 5f53 433e
000003a0: 02d3 643e c170 dc3e 17f6 a03e c02e ed3c
000003b0: b547 4ebe 6f44 f9bc 3ac1 54be f9ae d9bc
000003c0: 195b 8f3d 990b 1c3e cb78 d5bc a60e 153e
000003d0: 5329 ffbc a0d7 38be 13f8 bb3e 0894 363e
000003e0: dcb9 363d 12f2 85bb 841b 6cbe 4b10 e0bd
000003f0: 626f 1fbd 678c 8f3e c8cb f73e 7ba5 403e
0.104593456 -0.21578571 0.051316075 0.12487572 0.024829565 -0.18801147 -0.25779697 -0.16523455
0.08407236 0.18614712 -0.06881459 -0.14085443 -0.15672661 -0.1707753 0.07384907 0.20319551
-0.058629047 -0.28286165 -0.31404138 -0.15698637 0.24065886 -0.008989669 -0.17008542 -0.17499219
0.054510724 -0.00798599 0.5574893 0.07587134 0.40042186 -0.06904584 -0.21876162 0.009672253
0.087328784 0.66523117 1.0777171 -0.07443575 -0.016750243 -0.053512182 -0.087880865 0.15233305
0.585924 0.46028697 -0.10564774 -0.23175964 -0.28277114 -0.3509151 -0.12162194 0.15105917
-0.18139096 -0.16534558 -0.28901553 -0.16965035 -0.13794942 -0.18107103 -0.19612652 -0.0856231
-0.2112001 -0.29183426 -0.07825656 -0.24263689 -0.23297358 0.17013638 0.30381644 -0.23582695
-0.40271375 -0.39232343 -0.37081534 -0.033519026 0.32231 0.13215114 0.36031562 0.46837243
0.14102724 -0.14021848 0.02279073 0.17575517 0.099721245 0.71677035 0.8972769 0.04214008
-0.12437772 -0.10016885 0.12538403 0.23215197 -0.0077197007 -0.09372384 0.022894906 -0.2469689
-0.28939345 -0.07250991 0.086049326 -0.2976935 -0.12428569 -0.271134 -0.47491962 -0.34943715
-0.13193312 -0.21392426 -0.074971735 -0.07457417 -0.08317232 -0.020097284 -0.08391671 -0.07050611
0.019130947 -0.0059232637 -0.19426848 0.0865912 0.17492662 -0.034566265 0.028504835 -0.16881974
-0.21621847 -0.08996436 -0.04757125 0.066443264 0.3191442 0.24180396 -0.22756174 -0.12876013
-0.066400215 -0.17354615 -0.17273891 0.17400648 0.23651257 -0.15414724 0.1127901 0.0016652717
-0.008538799 0.111509115 0.0082267355 -0.08124344 -0.23234713 0.07818108 0.12845892 -0.1329708
0.0875128 0.023774963 0.09523157 -0.15029918 -0.14578249 -0.056668073 -0.17995931 -0.121335305
-0.002126514 -0.032206267 0.027093338 -0.016066879 -0.053727668 -0.004578903 0.015316577 0.21559708
0.12260067 0.08770374 0.0560582 0.14880715 0.3578127 0.30866343 0.31617868 0.062512435
-0.065779775 0.06456635 0.22893232 0.4542733 0.55301744 0.19168912 0.032057595 -0.033653952
-0.111739814 -0.1697286 -0.3823177 -0.30770892 -0.36299306 -0.034210075 -0.12243597 -0.038523387
-0.16329028 -0.44226882 -0.22539972 0.10385495 0.41413102 -0.013869162 -0.046010364 -0.19969799
-0.056938276 0.3056376 0.5461748 0.2522827 0.04584631 -0.040150024 -0.13278933 -0.032850146
0.34798446 0.10798121 -0.09235327 -0.017454412 0.063371986 0.07211948 0.081146896 0.19417249
0.088227294 0.019348409 0.042837817 0.10234931 0.046935428 0.3481973 0.49867693 0.6392559
0.759642 0.20274809 -0.14064135 -0.13758372 0.025030565 0.1465451 0.3107473 0.5114786
0.20283882 -0.11150104 -0.15533352 -0.105357796 -0.11744065 0.058968 -0.027897617 -0.07050465
0.18809752 0.32220674 0.26873863 -0.19361994 -0.33494794 -0.30556127 -0.18674856 0.19074772
0.22346118 0.43054774 0.31437752 0.028952956 -0.20144542 -0.03042814 -0.20776835 -0.026572691
0.069997974 0.15238799 -0.026058575 0.14556369 -0.031147635 -0.18051004 0.36712703 0.17829907
0.044610843 -0.004087695 -0.23057371 -0.10940608 -0.038924582 0.28036806 0.4839766 0.18813126

fc_layers.0.bias f4 [24]
00000000: 645c 053e 19cb 403e 09dc 4ebe d28a 16be
00000010: da28 d33d db77 213d fa5c cabd b218 313e
00000020: 51bf 20be 4520 69bd 7123 1bbe addf 48be
00000030: 246f 503d 9310 4fbd 227c 96bd b2bf beb9
00000040: f3c0 f5be 97b4 a7bc 1479 19be 76f1 d63e
00000050: 874f 87be 1d37 a9be 5d47 233f 59a5 91be
0.13023525 0.18827476 -0.20201124 -0.14701393 0.10310526 0.039420944 -0.09881015 0.17294577
-0.15697981 -0.05691554 -0.15150239 -0.19616576 0.050887242 -0.050552916 -0.07347895 -0.00036382448
-0.4799877 -0.020471854 -0.14987594 0.41981095 -0.26427862 -0.3304986 0.63780767 -0.28446463

fc_layers.3.weight f4 [10, 24]
00000000: ed3a dabe 79ea fcbe 6f01 babe b9f3 39be
00000010: afbc 80be 2959 423e 9858 273b c1c5 5d3e
00000020: ce16 d1bd ab3b 77be 3660 a7be 4c74 833e
00000030: efc7 b43e d07f c8bb db07 d03d c1a4 a03e
00000040: c39e 763e 2965 503d db3c 7fbe b65f abbe
00000050: fdd0 8c3e 737e 693e b105 4cbd 22ec 0ebf
00000060: 1231 b13e 0397 753e 8b46 fabd 4ba8 6dbe
00000070: 8bbf a4bd 7bf5 ce3d 52f7 da3d 47fa b13e
00000080: aaea 23be 4c92 2c3e fa25 fdbe f525 44bf
00000090: 3706 873e ca5d 853e f31b 31be e844 c9be
000000a0: b34c d6be 73c4 63bd d9ee 13be a69d d23e
000000b0: 7405 ccbe 54b2 54bf e40f c53e 95a3 36bf
000000c0: 6652 b03e 839a 16bf 7b2f 9a3e b974 41be
000000d0: e03d b7be 1391 d13e 5cd0 4cbc 243c 06bf
000000e0: 3263 893c 5029 a53c 880f 1dbc 3e83 83be
000000f0: 1a29 ad3e 6635 41bc 0a43 07be e7e3 ed3d
00000100: 1ab7 93be 8b4b 17bc 7922 0abe 48a5 a0be
00000110: 94b1 c43e b809 adbd d367 f9bd b608 adbe
00000120: 2db7 f0be b02e 423e 7004 8a3e f5a7 11bf
00000130: fcdd aebe fa28 a73e 532b 66be 9618 08bf
00000140: cde0 87be 6125 c63c 8805 a13e 0df4 0d3e
00000150: 115a e7bd 90dd ab3c cd6f e7bd c6f6 9a3e
00000160: d1d8 9dbe 69e0 85bd d9b7 313c 5300 75bd
00000170: 5be4 d6bd 0fb1 18bf 9bc7 18be a778 5c3e
00000180: c972 fa3e 2ec4 8e3e 3fbd 853e 8a16 96be
00000190: 8ac1 59be 8f9c c8be 7b0f 16bd e033 ce3e
000001a0: ea3d 8abe 2f86 88bd b2ef e8be 54d6 ebbe
000001b0: 3931 03bf 1240 13be 4be0 d53d 7b54 e3be
000001c0: 5b2b d73d e84a 92bd a473 853d 09ad b3bc
000001d0: bfc4 4cbe 2061 a83e 2e09 6bbe ab8a ca3d
000001e0: 860c babe 199b af3e 1be9 b2be 0072 eabe
000001f0: 7065 e13e 217a 62be 36ae 6f3d 1dad 9fbe
00000200: 118f f23d 122c 8a3d 3f07 623e 469e 953e
00000210: bc97 93be eaad 2a3d 6f3c 6a3c 0897 00bc
00000220: fbb3 a1be dccd 063d 5f31 5dbd e777 6bbe
00000230: 7cf3 0abc b522 a8be 1a58 56bd b672 723e
00000240: fcfb 8a3c 47d8 3ebe 5a27 55bf f7fb febe
00000250: e609 ef3e fee0 90bd 52be 5f3d 4b00 ca3e
00000260: e831 36bd f289 db3d 5ac8 01bf e2c0 05be
00000270: e7a8 18bf 04d6 7ebe 6aea 55be 5221 a73e
00000280: 2a86 d7be 80c8 ed3d 612f dbbd d10e ecbe
00000290: 0a50 5d3e ba6c c33e ee48 6b3e 0a4a 26be
000002a0: 3714 e13d 9627 c9be 897a c63e 4664 363e
000002b0: 0096 34bf a0ec 0e3e d1c7 e93d 86f0 06bf
000002c0: 4cec 653c 5010 d53d fcbd fd3d e40f cfbe
000002d0: 81ba c93e 2d83 7c3e 7a72 dfbd c32c 72be
000002e0: 517a 703e 785c c93d 5501 303e d4ca fb3e
000002f0: 1d85 f3be 0389 dfbe 308f febe c7fa 433d
00000300: d313 1bbe 7341 c9bd 4caa 7abe 4332 16bf
00000310: 1d5c cfbd 2c20 00bc 8ab5 c5bd f1a0 e3bd
00000320: f70b a5be 850a 2a3e cff9 0d3d 4d2a d1bd
00000330: 1048 35be 2199 63be 5d75 fabd e63c 723c
00000340: 7604 193e 9fb6 fa3d 28a7 2cbe 8a36 a9be
00000350: 8440 b33e 81a3 693d c983 e63e deaf 873e
00000360: 82b3 8dbe 59c4 8a3e 8b9d 1e3e f2e5 e0bd
00000370: eb56 f4be a610 6fbe f3f1 81bd 87e0 6dbe
00000380: dcae f1bc 5691 5e3d f35a 8c3e 911f 95bd
00000390: 02dc 16bd 6ffc 6abc 9e8e 39bd 2841 abbe
000003a0: ce44 973e 1bdc 323e bc5b 2fbe 1122 bd3e
000003b0: c47e 84bb a86e ac3e 8376 1bbe d385 1a3d
-0.42623082 -0.49397638 -0.3632922 -0.18159379 -0.25143954 0.18979324 0.0025534984 0.21657468
-0.10209428 -0.24143855 -0.3269059 0.25674665 0.35308787 -0.006118752 0.10157748 0.31375697
0.24084 0.050877724 -0.24925558 -0.3347146 0.27503195 0.22802143 -0.049810115 -0.5582906
0.3460775 0.23983388 -0.12220486 -0.2320873 -0.080443464 0.101054154 0.10691704 0.3476126
-0.16007486 0.16852683 -0.49443036 -0.7662042 0.2637193 0.26048118 -0.17295818 -0.39310384
-0.41855392 -0.05560727 -0.14446582 0.411359 -0.3984791 -0.8308461 0.38488686 -0.71343356
0.34437865 -0.58829516 0.3011435 -0.18892182 -0.35789394 0.40930995 -0.012500849 -0.5243552
0.016770933 0.0201613 -0.0095862225 -0.25686067 0.3382042 -0.011792516 -0.13209167 0.116157345
-0.28850633 -0.009234319 -0.13489713 -0.313761 0.3841673 -0.08449119 -0.12178006 -0.33795708
-0.47014752 0.18963122 0.2695651 -0.5689691 -0.34153736 0.3264845 -0.22477464 -0.53162515
-0.26538697 0.024187746 0.31449533 0.13862629 -0.11296476 0.020979673 -0.11300621 0.30266398
-0.3082948 -0.065369435 0.010847055 -0.059814762 -0.10492774 -0.5964517 -0.14919893 0.215304
0.489157 0.27884048 0.26120946 -0.2931407 -0.21265236 -0.39181945 -0.036635857 0.40273952
-0.27000362 -0.066662185 -0.45495373 -0.46061957 -0.5124698 -0.1437991 0.10443171 -0.4440039
0.10506316 -0.071431935 0.06516197 -0.021933096 -0.19996928 0.328866 -0.2295272 0.0988973
-0.3633768 0.34298018 -0.3494347 -0.457901 0.44022703 -0.22116901 0.05851575 -0.31186762
0.11843694 0.06746687 0.22073077 0.29222316 -0.28826702 0.041669764 0.014296635 -0.007848509
-0.31582627 0.032911167 -0.054002162 -0.22994958 -0.008480903 -0.3283898 -0.052330114 0.23676571
0.016965859 -0.18637191 -0.8326317 -0.4980161 0.4668724 -0.07074164 0.054624863 0.3945335
-0.044481188 0.1071967 -0.5069634 -0.1306186 -0.59632725 -0.24886328 -0.20890203 0.3264261
-0.42094547 0.11610508 -0.10702396 -0.46105054 0.21612564 0.3816889 0.22977039 -0.16239181
0.10990184 -0.39288014 0.38765362 0.17811689 -0.7054138 0.13957453 0.11415065 -0.5271076
0.014033388 0.10403502 0.12389752 -0.4044181 0.39400104 0.24659415 -0.109105065 -0.23649888
0.2348416 0.0983209 0.17188008 0.49178183 -0.47562495 -0.4365922 -0.49718618 0.04784658
-0.15144281 -0.098269366 -0.24479026 -0.58670443 -0.10124991 -0.00782017 -0.096537665 -0.111146815
-0.3223569 0.16605575 0.034662064 -0.10213146 -0.17703271 -0.22226383 -0.122294165 0.014785027
0.14943108 0.122418635 -0.1686064 -0.33049423 0.3501016 0.057040695 0.4502242 0.26501364
-0.27676016 0.27102926 0.15489785 -0.109813586 -0.47722563 -0.23346195 -0.06344976 -0.23230182
-0.029502325 0.054337822 0.2741314 -0.072814114 -0.03683091 -0.014342411 -0.045302026 -0.33448148
0.2954468 0.17466776 -0.17124838 0.36940053 -0.004043432 0.33678174 -0.15181927 0.03772528

fc_layers.3.bias f4 [10]
00000000: c943 e6be ba70 523f e82a 753e cd79 95be
00000010: 4eef e13d 9a78 0fbe 2257 153d abb4 80bd
00000020: f757 f93e a711 f4bd
-0.4497359 0.8220326 0.23942149 -0.2919449 0.11031972 -0.1401085 0.03646005 -0.0628446
0.48699924 -0.119174294
