model_mnist_20241120_185201.pt (torch, 46872 bytes, 16 tensors)

conv_layers.0.weight f4 [4, 1, 3, 3]
000000 44 60 9f 3e 09 59 f9 3e a3 68 c0 3e a4 5a 3e 3d
       0.31128132 0.4870074 0.3757983 0.04647316
000010 bf f6 8c be f9 dc 33 3e 78 aa 03 bf 3b 1e de be
       -0.27532002 0.17564763 -0.5143199 -0.4338244
000020 d9 9e c9 bd 08 f1 4e bf 11 81 b6 be ac ba 31 be
       -0.09844751 -0.80836535 -0.35645345 -0.17356366
000030 a0 04 a5 bc 2a 33 d1 be d9 af 04 bf eb 35 bf 3e
       -0.020143807 -0.40859348 -0.5183082 0.37345824
000040 f5 a0 8a 3e d2 ed 41 be 3e 31 2c bf 40 66 72 be
       0.27075925 -0.18938377 -0.6726264 -0.23671818
000050 03 ff 04 3f 38 95 14 bf cf 5b 4f be c0 04 26 3f
       0.51951617 -0.5804019 -0.20249866 0.64851
000060 90 b1 a9 be d9 40 49 be 14 d3 04 3e 60 64 c9 3e
       -0.33143282 -0.19653644 0.12971145 0.39334393
000070 b1 03 93 3e 7e 3c 4b bf 89 49 b2 3e 6d 5e de bd
       0.28713754 -0.7938918 0.34821728 -0.10857854
000080 9a 32 6b bf 38 71 05 bf 9b a5 76 bf 94 94 b5 be
       -0.91874087 -0.52125883 -0.96346444 -0.3546492

conv_layers.0.bias f4 [4]
000000 ff 33 90 bd 12 3d 1e bf 15 61 4b 3f 11 c5 35 be
       -0.070411675 -0.61811936 0.7944501 -0.17750956

conv_layers.1.weight f4 [4]
000000 5d ea 7a 3f 33 4a bc 3f 4e 23 52 3f 5a bb c5 3f
       0.9801386 1.4710144 0.8208512 1.54478

conv_layers.1.bias f4 [4]
000000 b5 af 2e 3d 1b c0 03 3e 57 ac 46 3e c1 4a a9 3c
       0.042648036 0.12866251 0.1940168 0.020665528

conv_layers.1.running_mean f4 [4]
000000 8d 32 84 bd bf 62 3c bf 91 16 3c 3f 06 bb b4 be
       -0.06454954 -0.73588175 0.73471934 -0.35298938

conv_layers.1.running_var f4 [4]
000000 89 16 61 3f 64 a1 2e 40 a0 80 06 40 7d 95 d0 40
       0.8792501 2.7286005 2.1016006 6.518248

conv_layers.4.weight f4 [8, 4, 3, 3]
000000 04 56 44 bf e9 1e 18 bf d7 18 b3 be 09 76 3a bf
       -0.7669375 -0.59422165 -0.3497989 -0.7283636
000010 e5 91 fd 3d 6d ad d8 bd a2 bc c9 3c f1 aa 25 3e
       0.12381343 -0.10579953 0.02462608 0.1617849
000020 54 89 29 3d 3f 96 67 3e 95 b6 92 3e d8 10 59 3f
       0.041390732 0.22615908 0.28654924 0.84791327
000030 3b 67 c9 3b 4e 28 c5 3c f9 70 b9 3e ba a1 2d 3d
       0.0061463392 0.02406707 0.36219004 0.042390563
000040 f7 da f9 3e ae e6 25 3d 4b c3 41 be 14 17 0d be
       0.4879987 0.040503196 -0.18922155 -0.13778335
000050 e2 e5 fe be fc cd 2c 3f 3c 9c 1a 3f bb 37 db 3d
       -0.49784762 0.6750181 0.60394645 0.10703989
000060 d7 5f fa 3e d8 89 f7 3d 14 70 7a be fa 61 21 3e
       0.48901245 0.120868385 -0.24456817 0.15760031
000070 22 af 83 bd fd a4 59 bf 0e 83 81 3c dd 6f 07 be
       -0.06429888 -0.8501738 0.015809562 -0.13226266
000080 44 8b d4 be ba 46 6c 3e 87 b7 61 3d 8a 8c db 3e
       -0.415125 0.23073855 0.055106666 0.4288066
000090 ce 18 6b be 88 4c 15 be 13 8a f0 be c0 71 5c be
       -0.22958681 -0.14579976 -0.46980342 -0.21527767
0000a0 7c 76 f7 3b cc 28 a7 be e8 0e 8c be 6d a8 75 3c
       0.0075519662 -0.32648313 -0.27355123 0.014993769
0000b0 d1 ac f4 be e0 c6 f4 3d ac 63 82 be c0 48 75 be
       -0.47788098 0.11951995 -0.2546667 -0.23953533
0000c0 3f 68 1b 3e e3 c7 c8 be 1b 54 1c be 76 4f 89 3e
       0.15176485 -0.39215 -0.15266459 0.26818436
0000d0 b1 5e 9c be a5 a4 9d be 6f 99 ac bd c5 86 30 3f
       -0.30540994 -0.30789676 -0.08427703 0.6895564
0000e0 0a 0d f8 3e 55 97 1c 3e 01 9a 2b 3f 66 de e1 3e
       0.48447448 0.15292104 0.67031866 0.4411499
0000f0 50 e1 34 3d 00 41 fc 3e 9f 5a dc 3e 8b ed b9 be
       0.044160187 0.4926834 0.43037888 -0.36314043
000100 72 38 74 3d e4 7e aa 3e c1 eb 45 be 5c c1 7d be
       0.059624143 0.33299935 -0.19328214 -0.24780792
000110 56 93 e0 3d e8 7e 34 bd 0b af 24 bf 28 91 39 bf
       0.10965602 -0.04406634 -0.64329594 -0.72487116
000120 e3 05 b0 be 17 d2 c3 be ff 96 23 be 43 22 97 3e
       -0.3437949 -0.38246223 -0.15975569 0.29518327
000130 ee 0b 93 be ad 60 15 bf 8b 1e b5 3d a3 40 63 3e
       -0.2872004 -0.5835064 0.08843716 0.22192626
000140 aa 26 87 bd f4 78 23 3f 76 88 18 3f 03 a1 41 3f
       -0.065991715 0.63856435 0.5958322 0.7563631
000150 6c 42 a5 3d a9 b8 8a 3e 35 46 d2 3e 3f 19 ba be
       0.080693096 0.2709401 0.4106919 -0.36347386
000160 0c d7 4e 3d 90 b2 3b 3e 38 2b c9 be ba 44 91 be
       0.050498053 0.18329835 -0.39290786 -0.28372747
000170 7d 2a 6b be 8b a2 ef bd 11 c4 1c be 9f e0 2d bf
       -0.22965427 -0.117009245 -0.15309168 -0.6792087
000180 70 b8 56 3e 6e 80 f3 3d c2 4c 44 3d 20 b1 95 be
       0.20968795 0.118897304 0.047924764 -0.29236698
000190 55 68 db be 1a 5a 93 3d 5c 77 d5 bd e3 4b 49 bf
       -0.42853037 0.0719492 -0.104231566 -0.7863142
0001a0 fa ff 8a be 43 2d 7b 3e 28 4c b9 be b0 c0 59 bf
       -0.2714842 0.24528985 -0.36190915 -0.8505964
0001b0 f0 90 8b 3e f3 09 83 be e4 03 dc bd 4f 64 28 3f
       0.27259016 -0.25593528 -0.107429296 0.6577806
0001c0 aa 44 0a 3f e6 a4 e1 3e 99 ac 96 be 46 b3 91 be
       0.54011023 0.4407112 -0.29428557 -0.28457087
0001d0 f3 29 e8 be a8 bb b6 3e fb 08 06 3f 7d a9 04 be
       -0.45344505 0.35690045 0.52357453 -0.1295528
0001e0 8e 6e 1d 3e 39 48 a0 bb 0d e5 6c be 39 8f 2e 3f
       0.15374205 -0.004891422 -0.23134251 0.6818729
0001f0 1d 8e f7 3c b7 95 b3 be 06 e5 87 3c 8b 4b 13 be
       0.030219132 -0.3507516 0.0165887 -0.14384286
000200 b1 c6 73 3e 86 55 b1 3d 48 79 56 be fe f1 9b bc
       0.23806264 0.086588904 -0.20944703 -0.01903629
000210 0c 3f c8 3c a5 e1 1d be c3 39 04 3e b4 e5 8c 3d
       0.024444126 -0.15418108 0.1291266 0.0687975
000220 73 b0 7a bd c6 7c f2 be d7 5c 8f 3d 46 f4 55 3d
       -0.06120343 -0.4736082 0.0700013 0.05223491
000230 71 33 0e be 36 fd 8d 3e 61 85 ad 3e 16 4d 39 3f
       -0.13886811 0.27732247 0.33890823 0.7238325
000240 8d 5b 72 3e 65 a4 b5 bc 17 bc 07 bf 1f 20 46 3e
       0.23667736 -0.022173116 -0.5302138 0.1934819
000250 e0 9e 35 3e fa dc c0 be d1 48 9b be e3 fb b1 3d
       0.17736387 -0.37668592 -0.30328992 0.08690622
000260 f4 e7 1d be f1 f2 78 be 89 6b a0 bc c3 78 31 3f
       -0.15420514 -0.24311425 -0.019582527 0.6932489
000270 f7 df 65 3e 82 93 9b 3d 9f 6b 0b 3f a0 7b 22 3e
       0.22448717 0.07596494 0.5446109 0.15867472
000280 d2 72 30 be d7 d8 5c 3e 9b 7c 19 3f 49 f4 7a 3e
       -0.172313 0.21567093 0.5995576 0.2450725
000290 64 ec 9b bd 66 2c 07 3f f1 99 10 3f 00 dd 90 be
       -0.07613447 0.5280212 0.56484896 -0.2829361
0002a0 90 26 68 bb e6 0b 0a 3f f3 9e d9 3d 85 46 c8 be
       -0.0035423376 0.53924406 0.1062602 -0.39116302
0002b0 07 0c 8f 3c d7 4f aa 3e a9 3e 0b bf 69 77 3b 3d
       0.01746179 0.33264038 -0.54392487 0.045768175
0002c0 da 1c 24 3e cc 72 1c be 72 90 37 be 12 f9 1b bf
       0.16026631 -0.15278167 -0.17926195 -0.60926926
0002d0 6f a3 bd be a4 2f 8f bd c5 b7 73 3d 95 2b c6 bd
       -0.37038752 -0.069915086 0.05950143 -0.09676281
0002e0 71 27 e0 3e 7b cf 7d bc 91 f0 46 3f 00 27 13 3e
       0.4378009 -0.015491362 0.77710825 0.14370346
0002f0 1b 94 b7 bd bb 2c 65 3d 0e 70 34 3e 6a b7 22 be
       -0.08963796 0.05595086 0.1762087 -0.1589028
000300 bf 52 9f 3e ca a7 35 be 42 f2 3d bf c4 e1 20 bf
       0.31117818 -0.17739788 -0.7419778 -0.6284449
000310 8b 26 e7 be 85 84 ea be 0c dd 1c be 2e c4 c6 3c
       -0.45146593 -0.4580423 -0.15318698 0.024263468
000320 8c 1f 95 3d 63 96 1c be 9d f1 e1 be da 6c e8 3d
       0.07281408 -0.15291743 -0.4412965 0.11348887
000330 2b 79 94 bd e1 2d 85 3d a1 89 c5 3e c6 f5 37 3f
       -0.072496735 0.06502891 0.38581565 0.71859396
000340 3a f6 e3 bd 06 ed ce be ed 38 06 bf 7d 5d da 3d
       -0.11130948 -0.4041521 -0.5243061 0.10662363
000350 d0 bd e8 bc 0e cd 2e 3d f9 a1 a0 be 78 04 d0 3e
       -0.028410822 0.042676024 -0.31373575 0.4062841
000360 6b fa 76 be 8f 21 63 bd 3d d4 6c be b3 28 a0 be
       -0.24118964 -0.055451926 -0.23127837 -0.3128105
000370 cc fb de 3d 81 14 d0 be 9a 06 cf 3d 7f 9e e1 3b
       0.1088787 -0.40640643 0.10108681 0.0068853493
000380 c2 bc 41 be e7 48 4d be a6 c1 d3 be e1 34 9c 3d
       -0.18919662 -0.20047341 -0.4135868 0.07627273
000390 3b 60 31 bd 60 c5 98 bd 82 b0 00 3e 96 bb 41 bf
       -0.043304663 -0.07459521 0.12567332 -0.7567686
0003a0 4e e6 84 be 0e 16 43 3e 40 5a 07 3f 66 32 8e 3e
       -0.2595696 0.19051382 0.52872086 0.27772826
0003b0 b1 6c 8e be b1 8d 06 3f a4 8a 0b 3e e0 30 05 bf
       -0.278173 0.52559954 0.13627106 -0.520277
0003c0 91 96 0b be e3 d6 f9 be c2 16 10 bf 73 e9 93 bd
       -0.13631655 -0.48796758 -0.56284726 -0.07222261
0003d0 fd 6b f5 3d bb d5 17 3f 5c d0 9d bd e1 24 31 3e
       0.11983488 0.593105 -0.07705757 0.17299224
0003e0 07 ff 74 3f a3 aa e2 3e 67 72 04 3f fd b1 38 3f
       0.9570164 0.4427081 0.51737064 0.7214659
0003f0 2b 5d d9 3e 49 60 84 bf 36 67 2d 3f 67 6e 10 3d
       0.42453894 -1.0341884 0.6773561 0.035261538

conv_layers.4.bias f4 [8]
000000 0f eb 61 3e fb 4b 8e be 74 e3 48 3e 42 9a 0b be
       0.22062324 -0.27792343 0.19618016 -0.13633063
000010 10 8e 3a 3e 42 32 9e be 22 66 22 bd 23 ba ed 3d
       0.18218255 -0.3089772 -0.039648183 0.116077684

conv_layers.5.weight f4 [8]
000000 f2 05 6b 3f 0e c4 7b 3f 49 31 87 3f 42 ab 2d 3f
       0.91805947 0.9834603 1.0561916 0.67839444
000010 2f 4e 2f 3f 9d 14 36 3f 45 66 50 3f 0b 8a 84 3f
       0.68478674 0.71125203 0.8140605 1.0354627

conv_layers.5.bias f4 [8]
000000 f8 56 d1 be c8 5e 5d bf fb d5 31 bf 85 79 18 bf
       -0.40886664 -0.8647275 -0.69467133 -0.59560424
000010 32 3e 5f bf 34 bc 36 bf 25 5f 10 bf 5c af cf bf
       -0.8720428 -0.71380925 -0.5639518 -1.622539

conv_layers.5.running_mean f4 [8]
000000 ff 8a 71 3f 7b a3 b1 bf 25 1b 8f bf 19 61 aa 3f
       0.94352716 -1.3878015 -1.1180159 1.3310882
000010 44 6c 99 3f dc ac cb bf 7e 96 9d 3e 55 32 01 c0
       1.1986165 -1.5912127 0.3077888 -2.018697

conv_layers.5.running_var f4 [8]
000000 5c 69 85 40 25 c6 25 40 5f 18 87 40 b1 2a 0d 40
       4.1691113 2.5902188 4.221725 2.2057307
000010 f9 9f c6 3f 90 a5 01 40 60 b4 4b 40 9d 79 e1 3f
       1.551757 2.0257301 3.1828842 1.7615238

fc_layers.0.weight f4 [24, 392]
000000 a5 88 8f 3c 66 fc 1f be d0 65 87 be c8 2f 79 3c
       0.017521212 -0.15623626 -0.26444864 0.015209146
000010 23 c4 8e 3d 6f 58 06 3e 58 7e cf 3d d2 1e e4 bc
       0.06971004 0.13119672 0.1013152 -0.027846728
000020 a7 18 0a bd d3 b9 2c be b1 72 14 bd e9 0f 18 3e
       -0.033714917 -0.16867761 -0.03624219 0.14849819
000030 d7 29 16 be d5 53 ed bc 44 3f 8a be 76 99 60 be
       -0.14664398 -0.028970638 -0.27001393 -0.2193354
000040 20 ff c0 be 63 f1 88 3e fc 83 06 bd 45 b0 70 3c
       -0.37694645 0.26746663 -0.032840714 0.014690463
000050 d5 7e a8 bd b5 9e a3 be cf 7d 2e be 24 fb ad be
       -0.08227316 -0.3195702 -0.1704018 -0.33980668
000060 0d 03 7a bd 53 28 b3 be 25 df 38 3d 95 e5 78 3d
       -0.061038066 -0.34991702 0.045134682 0.06076582
000070 68 cd 17 be 1d 33 83 3d f7 6a da 3e 21 78 31 3e
       -0.1482445 0.064062335 0.42659733 0.17330982
000080 ad 65 0f be 41 4d 1d be 41 0b c0 3a 1f f4 1f bd
       -0.1400363 -0.15361501 0.0014651791 -0.03905117
000090 7f d5 17 3f b0 52 83 3f a1 3c 1f 3f a2 8f 1b 3e
       0.59310144 1.0259609 0.6220189 0.1519151
0000a0 49 8d 78 be 20 56 21 bd 24 22 1f 3e 60 e6 a9 3e
       -0.24272646 -0.039388776 0.15540367 0.33183575
0000b0 2f 1c 16 3f ec f5 08 3f 8d ad 81 3e 46 50 d4 bd
       0.58636755 0.53500247 0.2532772 -0.103668734
0000c0 1a f1 47 be 5f 17 87 be e8 a7 20 bf 3c 50 b8 be
       -0.19525567 -0.26385018 -0.62756205 -0.35998714
0000d0 05 1a dc be cf 8e e9 be aa 1f 37 3d cf bc 2e 3e
       -0.429886 -0.45616767 0.04470793 0.17064212
0000e0 e8 c1 93 3e 33 5d 45 bc 80 f4 33 be 27 ec 45 bd
       0.28858876 -0.012046146 -0.17573738 -0.048320916
0000f0 12 e9 8a be 16 af 1a be 74 5b c0 bd 61 a3 8b 3e
       -0.27130944 -0.15105852 -0.09392443 0.27273086
000100 1d f9 3b 3e 4d 6c f5 3d 36 08 1a be a6 dc c1 be
       0.18356748 0.11983547 -0.15042195 -0.37863654
000110 c1 2d ed be a3 df 5d be fd 53 6f be 25 ad d8 bd
       -0.4632397 -0.21667342 -0.23371883 -0.105799
000120 24 c2 2c 3e 4c 7a db be 37 20 45 bf b3 da b6 be
       0.16870934 -0.42866743 -0.7700228 -0.3571373
000130 a2 70 64 be e9 2e f9 be b7 95 ef be d8 40 bf be
       -0.22308591 -0.48668602 -0.4679391 -0.3735416
000140 01 58 e8 be 9c 87 d6 be c7 a5 3f 3d 74 4d 5d be
       -0.45379642 -0.41900337 0.046788957 -0.21611577
000150 d1 36 5c be a8 2c 10 be b0 ff 8c be 57 c0 b1 3d
       -0.21505286 -0.14079535 -0.27538824 0.08679264
000160 b9 68 2f 3e c8 81 ae 3d c0 67 90 be c2 4b 26 be
       0.17129792 0.085208476 -0.28204155 -0.16239837
000170 07 b1 48 3c 34 ce 10 bd d6 5f 14 3e df 41 39 3e
       0.012249238 -0.0353529 0.14489684 0.18091534
000180 be 61 96 3e 63 b0 99 bd a8 c4 e7 3d 04 c4 eb bd
       0.29371446 -0.07504346 0.11316806 -0.115119964
000190 f6 65 18 3e 86 8a 9f 3e e8 db b0 3e 73 23 15 3e
       0.14882645 0.31160372 0.34542775 0.14564304
0001a0 99 21 58 3c 69 b2 c2 3d d1 f8 7e be 45 b8 ea bd
       0.013191604 0.09506685 -0.24899603 -0.11460928
0001b0 93 c2 19 3e 02 b2 96 3e 63 c8 f0 3d 32 46 b4 be
       0.1501563 0.29432684 0.11756971 -0.35209805
0001c0 e5 c2 b1 be 9c 21 28 bf cf 2a 9d be 21 11 4c be
       -0.34719005 -0.65676284 -0.30696723 -0.19928409
0001d0 c5 a4 5b bd e1 7e 18 be 42 24 5f be 49 fc e1 bc
       -0.053623933 -0.1489215 -0.21791175 -0.02758612
0001e0 84 b8 80 be 2c a8 83 be 87 00 2c be 94 59 7f be
       -0.25140774 -0.25714242 -0.16797076 -0.24936515
0001f0 50 51 d5 3d f9 5d 39 be 3e c1 9a 3e d8 e1 1f 3f
       0.104159 -0.18102254 0.30225557 0.62453985
000200 a8 c2 65 3e 0d 4d 47 3d e8 af 0c be 42 b7 7a 3d
       0.22437537 0.048657466 -0.13738978 0.061209925
000210 9f 77 85 3e e9 f8 cc 3c 9e f1 dc 3e f3 c0 8e 3e
       0.26067826 0.025021033 0.4315309 0.27881584
000220 13 c4 02 3e b1 59 73 be c5 4f 27 bf ab 26 b9 be
       0.12770109 -0.23764683 -0.65356094 -0.36162314
000230 b5 63 d3 be 87 71 04 3e 34 d6 c0 3d 39 a8 f6 bd
       -0.41287008 0.12933932 0.09415856 -0.12043805
000240 86 6f c7 be 02 f0 8b be a6 49 01 3e e6 71 71 3d
       -0.38952273 -0.2733155 0.12625751 0.058946513
000250 9d 03 1a be 50 df 16 be 3d df 03 3d 98 73 21 3d
       -0.15040441 -0.14733624 0.03219532 0.03941688
000260 4b ad 29 3d ac 4e 8e 3d 6f 13 7d bd 31 f1 74 be
       0.04142503 0.06948599 -0.06178611 -0.23920132
000270 27 1c 34 3e 99 62 83 3e d8 d6 8e 3e 6b 85 57 3e
       0.17588864 0.25661162 0.27898288 0.21046989
000280 4a 91 38 3e 44 f8 2c 3e 94 46 cb bd 45 50 00 3e
       0.18024173 0.16891581 -0.09925571 0.1253062
000290 fb e6 9d 3e 6d dc a1 3e 49 e7 a8 3e 5c 34 84 3e
       0.30840287 0.31613484 0.32988957 0.25821197
0002a0 bd d9 92 be 60 ce 90 bc 24 37 a4 3e bb 4e c6 3e
       -0.28681746 -0.017676532 0.3207332 0.38731942
0002b0 1b d4 cb 3c 34 57 dc be 8e 14 b7 be 6f cb 58 be
       0.024881413 -0.4303528 -0.3575787 -0.21171354
0002c0 27 0a 88 3c 44 70 cf 3e d9 1e 07 3f b1 19 75 be
       0.016606404 0.4051534 0.52781445 -0.23935582
0002d0 c4 81 23 bf 1d a6 15 bf 5a 6e 04 be 15 e1 7c 3e
       -0.6386988 -0.58456594 -0.12932721 0.24695237
0002e0 20 0d 14 3e 68 a6 b8 3d 79 fb 5b be 4e f4 bd be
       0.14458132 0.090161145 -0.21482648 -0.37100452
0002f0 a7 79 77 be bc 2a af be 37 b4 b6 3d 75 b1 6b 3d
       -0.241675 -0.3421229 0.08921092 0.057542283
000300 fe 5f 04 3d be a5 5d be ec ac 7b bd 0d d7 8f bd
       0.032318108 -0.21645257 -0.061444208 -0.070234396
000310 81 39 85 bd f0 13 a7 be e5 65 a1 be 2a e0 2f 3d
       -0.065051086 -0.326324 -0.31523052 0.04293839
000320 59 ac f3 bc 38 60 94 bd 9c 05 42 bc 68 90 ee bc
       -0.029745268 -0.07244915 -0.011842158 -0.029121593
000330 8d 77 8d be 00 1d ba be dc 49 82 be 1b a9 2a 3e
       -0.27630273 -0.3635025 -0.25446975 0.16666071
000340 4d 8e a0 3b 27 21 13 3d 98 39 af bd 6f bf 95 bd
       0.004899776 0.03592029 -0.08555907 -0.07311904
000350 85 f1 60 3d 76 c9 9d 3d ad 93 28 be d2 70 9a be
       0.05491783 0.07704441 -0.16462584 -0.301642
000360 11 90 9e be 3a de d3 bd 81 d0 36 3e 34 90 88 3e
       -0.3096929 -0.10345121 0.17852975 0.26672518
000370 87 08 c5 3e 8e d1 43 be d5 8d 3d 3c 69 9e ce be
       0.38483068 -0.19122908 0.01156946 -0.40355232
000380 72 be f0 3d 20 68 83 3d de 1c 95 bd 5f 6a 06 3d
       0.117550746 0.06416345 -0.072808966 0.032816287
000390 65 5b f6 3d dc fb 78 3e 4f 49 02 bd 96 c7 4d 3d
       0.12029151 0.24314827 -0.031808194 0.050239168
0003a0 c0 00 ca 3d ac 88 63 3b 1a 27 a1 bd 36 dc 89 3e
       0.09863424 0.0034718914 -0.07868786 0.2692582
0003b0 58 b2 42 3e 2c c0 46 3e a0 22 f9 3d e5 32 a5 3d
       0.19013345 0.19409245 0.12164807 0.08066348
0003c0 0a 75 b3 bd 58 fa af bd c7 d9 b0 bb 02 ee 29 3c
       -0.08762558 -0.08592671 -0.005397055 0.010371687
0003d0 30 26 54 3e 39 a5 57 be 41 01 bd be 99 72 1f be
       0.20717692 -0.21059121 -0.3691502 -0.1557106
0003e0 95 cd 4f 3d fb 6f 67 bd f6 96 06 3e ae cb c7 3d
       0.050733168 -0.056503277 0.13143525 0.09755646
0003f0 53 0c 08 3e bc 24 54 3e 6d 1c 52 3e d0 0a fa 3d
       0.13285951 0.20717138 0.20518656 0.122090936

fc_layers.0.bias f4 [24]
000000 93 10 b4 be 7a c1 49 be 43 26 0a be a4 32 94 bb
       -0.35168895 -0.19702712 -0.13491158 -0.0045226384
000010 0d 8b 52 3e 91 a2 0f 3f a1 f1 67 be 2d 77 48 3e
       0.20560856 0.5610743 -0.22650768 0.19576712
000020 ef 79 67 bd 69 f3 a3 3e 1b 4c 64 bc a6 80 88 3c
       -0.05651277 0.32021645 -0.013934161 0.016662907
000030 63 24 e4 bb 14 f5 d1 be e5 38 b9 3e ba 04 8f 3d
       -0.0069623454 -0.41007292 0.3617622 0.069833234
000040 dd e8 47 be 4f 6f 19 3e 16 56 68 3c 25 19 b1 bd
       -0.19522424 0.14983867 0.014180681 -0.08647374
000050 94 d3 d4 bc 82 ee 9a be 39 b3 98 3e 42 84 5b be
       -0.025979795 -0.30260092 0.29824236 -0.21437171

fc_layers.3.weight f4 [10, 24]
000000 43 e0 f7 be 7b f2 ae bd 57 f5 e6 be a5 b1 06 3d
       -0.48413286 -0.08542343 -0.45109054 0.03288426
000010 71 db d8 be 67 a4 22 bf d3 64 60 bd 37 6a c4 3e
       -0.4235492 -0.6353211 -0.054783653 0.38362285
000020 cb c4 9b be 51 de 0c bf 6a dc cc 3c 26 64 a6 3d
       -0.3042358 -0.5502673 0.025007445 0.081245705
000030 38 d8 ae be a7 75 93 be 34 b8 42 bd 8e 8d 2f be
       -0.34149337 -0.288007 -0.04753895 -0.17143843
000040 fc 72 8a 3e 15 f5 d0 bc 74 07 03 3e 20 c4 c1 bc
       0.2704085 -0.02550749 0.12795812 -0.02365309
000050 82 f3 32 be 23 4f c3 3e 65 49 8e 3e cf 11 98 3e
       -0.17475703 0.38146314 0.2779037 0.29701087
000060 39 48 f2 be 10 99 c7 be 48 58 cf be 45 ea 0e bf
       -0.47320727 -0.38983965 -0.4049704 -0.55826217
000070 3a 4e a0 3e 6e e0 b0 3e d0 60 1a be 34 22 3d 3e
       0.31309682 0.34546226 -0.15075994 0.18470079
000080 e2 04 f2 bd 90 26 91 3e a9 cd 8b be 4b 01 7c bd
       -0.118173376 0.28349733 -0.27305344 -0.06152467
000090 3c 3b b4 bc c6 1a 25 bf 61 73 b4 3e ff e9 16 3f
       -0.022000901 -0.6449398 0.35244277 0.589508
0000a0 30 0d 06 bf 5f fb 93 3e 8d fb 59 be 9a 5c f7 3c
       -0.5236387 0.28902718 -0.21287365 0.030195523
0000b0 82 c4 44 be f6 ef 6f bf da 75 d5 3d 0b 7b c4 be
       -0.19215587 -0.93725526 0.10422869 -0.38375124
0000c0 b6 3d 00 bf 3e e6 83 3e 5e 7f 88 be 55 4b 53 3e
       -0.50094163 0.25761598 -0.26659673 0.20634206
0000d0 bc 81 a4 be 53 65 78 3e 00 26 5b bd 54 85 b1 be
       -0.3213023 0.24257402 -0.053503036 -0.34672034
0000e0 b4 b5 fd bd 61 2f 2d be 10 09 8f be 2e c4 8b bd
       -0.12388173 -0.16912605 -0.27936602 -0.06824528
0000f0 5d ad a0 3e 24 38 98 be 07 0f 97 be b6 95 e2 be
       0.31382266 -0.29730332 -0.29503652 -0.44254845
000100 ad ae 8b 3e 11 b9 a1 3e 2e 7f 31 bd 43 ad cf bd
       0.27281705 0.31586507 -0.04333418 -0.10140469
000110 bc e6 97 bb 0f 4a 69 be b2 62 93 3e b9 ab a0 be
       -0.00463566 -0.22782157 0.28786236 -0.31381014
000120 20 3b 98 3e 0c 56 92 be 15 fd 58 3e cc bc ca 3c
       0.2973261 -0.28581274 0.21190293 0.024748228
000130 ab 02 4f be 30 b0 9e 3e b6 14 78 bc 18 31 b7 be
       -0.20215861 0.30993795 -0.015141657 -0.35779643
000140 9e 40 f3 bd 7b 4a 34 3e 63 fa e8 bd 8c 94 23 3e
       -0.11877559 0.17606537 -0.113758825 0.15974635
000150 e8 21 d1 3e 85 46 11 bf b4 3a 09 bf 43 55 01 be
       0.4084618 -0.5674823 -0.536052 -0.12630181
000160 b3 0d 5c 3e d1 83 fb be 5b 01 a6 bd 75 cf 1d bd
       0.21489601 -0.49124005 -0.08105727 -0.038527925
000170 52 08 b6 bd 02 0d 92 be 95 bd 36 3e 94 23 d1 be
       -0.08888306 -0.2852555 0.17845757 -0.40847456
000180 f9 63 cb 3d 86 15 e8 bd 26 a8 15 bf 8c 3d 7a be
       0.09931178 -0.1133223 -0.584597 -0.24437541
000190 7b 7c de 3e df ff 1e bf bc fd f3 3d eb 68 94 be
       0.43454346 -0.6210918 0.1191363 -0.28986296
0001a0 f2 a0 b5 be 8f 85 68 be 8f da f0 3c e8 2b f1 bd
       -0.35474354 -0.22707199 0.029401092 -0.117759526
0001b0 6a 8a 66 be 57 6d eb 3e 17 72 eb bd 9e bc 04 bf
       -0.22513738 0.45981857 -0.1149637 -0.51850307
0001c0 25 8e d4 be b9 fc c3 3e a2 77 98 be 99 44 c6 bc
       -0.41514698 0.3827875 -0.29778773 -0.024202632
0001d0 1f 5e 17 be 26 70 9b be 58 3b 13 be 61 c7 bb 3e
       -0.14781998 -0.30359 -0.14378107 0.36675552
0001e0 dc 1b b5 3e 2c 8f d4 3c 2e d5 94 3e 6f ce 02 bf
       0.35372818 0.025947176 0.29068893 -0.5109624
0001f0 77 d0 d1 be 76 e2 31 be 7e cb 65 bd 65 08 e8 3e
       -0.4097936 -0.17371544 -0.05610227 0.45318905
000200 40 c9 07 be 79 ca a9 3d c1 84 69 3e 98 f4 a6 3c
       -0.13260365 0.08290572 0.22804548 0.020380303
000210 6a 6e b8 3e a8 c8 5b be f9 7f ce bd 88 1a 0f bc
       0.3602174 -0.21463263 -0.100830026 -0.008734353
000220 e4 c3 c2 be 27 06 af be 41 b7 38 3e bd 7f 4f be
       -0.38040078 -0.3418438 0.18038656 -0.20263572
000230 06 e9 e1 bd dc 52 2e bd 69 c5 af be a8 2c 81 be
       -0.11030774 -0.04255949 -0.343303 -0.25229383
000240 19 29 9a be c4 bf 94 3e 8f 89 26 3e 55 53 7d bf
       -0.3010948 0.29052556 0.16263412 -0.9895528
000250 d7 f4 09 bf 82 4f 88 bc ca b5 8d be b3 4a b4 3e
       -0.5388922 -0.016639475 -0.27677757 0.3521324
000260 22 08 34 bf cb a3 6b bf 89 bb fc 3e 7e c3 60 3e
       -0.7032491 -0.92046803 0.49361828 0.21949574
000270 d7 b9 3a bf 93 96 a1 3e 66 bc 98 3e 1b fb 93 be
       -0.7293982 0.31560192 0.29831237 -0.28902516
000280 1c 76 a2 be 3c a9 01 3e 91 18 b3 be 65 b8 11 3e
       -0.31730735 0.12662214 -0.3497968 0.14230497
000290 ad 57 bc bd 7a b9 68 be 0d ae 63 3e f8 2b ab 3e
       -0.0919641 -0.22727004 0.22234364 0.33431983
0002a0 14 74 c7 be 99 41 31 bf cf 95 ea be 4d 73 72 3e
       -0.38955748 -0.6924072 -0.4581742 0.23676796
0002b0 9b 91 50 3e 84 5f be 3e 03 bf ee bb 42 a7 bc be
       0.20368044 0.37182248 -0.007285954 -0.36846358
0002c0 7f 87 d6 3e 5f 0d fd 3e 6b 2c 02 bf 16 8c 1e be
       0.4190025 0.49424264 -0.50849026 -0.15483126
0002d0 25 27 43 bc 0a 89 75 3e 1a 9c 42 bf 3f 32 04 3e
       -0.011911188 0.23978058 -0.7601944 0.12909792
0002e0 08 3d 0c 3e 73 d1 19 be c2 c6 87 3e 76 f3 3c be
       0.13695157 -0.15021305 0.26518828 -0.18452248
0002f0 90 40 25 be 25 7c 84 3e 59 53 d0 be 6f 31 17 bf
       -0.1613791 0.25875965 -0.4068859 -0.59059805
000300 05 c6 bd 3d e4 d3 a7 3e ee f5 29 3e f1 b5 16 3d
       0.09266285 0.32778847 0.16597721 0.036794607
000310 c8 8a 06 be ea 99 e3 be d4 40 8f 3c 90 4b 6d be
       -0.13138878 -0.44453365 0.017486967 -0.23173356
000320 ec 73 3a bc 7c 70 e6 be 1e 3a 40 3c da 21 1a be
       -0.011380177 -0.45007694 0.011732606 -0.15051976
000330 a8 3b c7 bd e2 19 a1 be c8 3c b7 3e 20 fa 6a 3e
       -0.097281754 -0.3146506 0.3578856 0.22946978
000340 60 7f 78 3e 85 ad 7e bd e9 e3 75 3d a1 c6 19 bc
       0.2426734 -0.0621772 0.060031805 -0.009385736
000350 6e 43 0d 3e 2a ca 6a 3e 93 a5 80 be e0 21 f4 bb
       0.13795254 0.22928682 -0.25126323 -0.0074503273
000360 bc 5f ab 3e 06 89 38 3e 5a c4 4d be 4b 53 26 3e
       0.33471477 0.1802102 -0.20094433 0.16242711
000370 2b 59 a1 3e b2 78 c5 be 46 b1 50 be 34 57 c9 be
       0.31513342 -0.38568646 -0.20380124 -0.39324343
000380 d7 57 7c 3e 2d ac 95 3e 2e fe c8 be 26 9a ab 3d
       0.24642883 0.29232922 -0.39256424 0.08379011
000390 33 25 82 bd 13 7d 16 3e a2 1e 9f be 1d 08 e3 be
       -0.063547514 0.1469615 -0.31078058 -0.44342127
0003a0 d7 12 4e be 5b 65 99 be 6f ab 5f 3e e9 37 a9 3d
       -0.20124374 -0.2996014 0.2184274 0.08262617
0003b0 aa 1f 1b be 5d 9b 94 3e 82 2d e9 be 1f 97 82 3e
       -0.15148798 0.29024783 -0.45542532 0.2550592

fc_layers.3.bias f4 [10]
000000 8f a4 52 be b4 9d 16 3f ae 85 33 be d1 33 06 be
       -0.20570587 0.58834386 -0.17531464 -0.13105704
000010 5b ca f4 3e b8 f3 8d 3e 57 db 82 bf 20 9e c2 bc
       0.47810635 0.27725005 -1.0223187 -0.02375704
000020 07 b3 89 3e 13 7e a9 bd
       0.268944 -0.08276
