model_mnist_20241120_184523.pt (torch, 39504 bytes, 6 tensors)

conv_layers.0.weight f4 [8, 1, 3, 3]
0	0x3e2dee1c	0.16985363
1	0x3f3c89f2	0.7364799
2	0x3e5cdf2d	0.2156951
3	0x3e8eb19b	0.27869877
4	0x3ded28b4	0.11580029
5	0x3f3baa14	0.73306394
6	0x3e6d852f	0.23195337
7	0xbe7fca8b	-0.24979608
8	0xbd2cd757	-0.04219755
9	0xbd38b7c7	-0.04509714
10	0x3e091867	0.13388215
11	0x3eefe505	0.46854416
12	0xbce88e10	-0.028388053
13	0x3ee482e6	0.44631118
14	0x3efb0844	0.49029744
15	0x3f0e7f68	0.55663157
16	0x3f037b01	0.51359564
17	0xbd00391e	-0.03130447
18	0xbea78a34	-0.32722628
19	0xbed9e9c5	-0.42561164
20	0xbeba97f9	-0.3644407
21	0xbee1424e	-0.439959
22	0xbd125f0c	-0.035735175
23	0x3e7be159	0.24597682
24	0xbe212121	-0.15735294
25	0x3eea5ee7	0.4577553
26	0xbd044cfc	-0.03229998
27	0xbe403a63	-0.18772273
28	0x3ea0a09a	0.3137253
29	0x3e9925cf	0.29911658
30	0x3e84d0f7	0.25940678
31	0x3e23f803	0.16012578
32	0x3eec51b6	0.4615609
33	0x3ecc17df	0.39861962
34	0x3efb68b4	0.4910332
35	0x3d8b075a	0.067885116
36	0x3f03eacb	0.5153014
37	0x3e01378e	0.12618849
38	0x3f127a82	0.5721818
39	0x3d488e86	0.048964046
40	0x3e890219	0.26759413
41	0x3e72e1ed	0.23718996
42	0x3dc92a08	0.0982247
43	0x3eea216f	0.45728633
44	0xbdaa9e77	-0.08331006
45	0x3cb75f42	0.02238429
46	0x3e86348a	0.2621196
47	0xbe1c3a2e	-0.15256569
48	0x3ef5dcae	0.48019928
49	0x3c9bb18b	0.019005558
50	0x3ebdefc7	0.37096998
51	0x3d972354	0.07379785
52	0x3d47ff60	0.04882753
53	0x3f04e885	0.51917297
54	0xbe1acc3f	-0.15116976
55	0x3e044a8f	0.12919067
56	0xbdb08241	-0.08618594
57	0xbdaed51e	-0.08536743
58	0x3ea4ee8c	0.32213247
59	0x3ed5b9de	0.41743368
60	0x3f1440e0	0.5791149
61	0x3f0d719f	0.552515
62	0xbd8296ee	-0.06376444
63	0xbe7d8842	-0.2475901
64	0xbe419075	-0.18902762
65	0x3e28aa9b	0.16471331
66	0x3baf9ef9	0.005359527
67	0xbd9ecb69	-0.07753641
68	0x3ee53524	0.44767106
69	0x3ec362eb	0.38161406
70	0x3e06d5cf	0.13167499
71	0x3f11b011	0.5690928

conv_layers.0.bias f4 [8]
0	0x3bf8780e	0.007582671
1	0xbd0593b8	-0.03261158
2	0x3e90b529	0.28263214
3	0xbacd72cd	-0.0015674472
4	0x3e55708e	0.20843717
5	0x3d544dfd	0.051832188
6	0xb921b837	-0.00015422782
7	0x3cc15c64	0.023603626

conv_layers.3.weight f4 [16, 8, 3, 3]
0	0x3d8b41f3	0.06799688
1	0x3e25be64	0.1618591
2	0x3e17a65d	0.14809556
3	0x3d9f9c0e	0.07793437
4	0xbd36c75a	-0.04462371
5	0x3db0ecdd	0.08638928
6	0x3c73e2f7	0.014885656
7	0x3be2a360	0.0069164485
8	0x3cb93bc3	0.022611504
9	0xbdc0848d	-0.09400282
10	0x3dc7c2de	0.09753965
11	0x3e1b5208	0.15168011
12	0x3df6ca83	0.12050345
13	0x3a665013	0.00087857357
14	0x3e071343	0.13190942
15	0x3e5ad75c	0.21371216
16	0x3da00312	0.078130856
17	0xbd2508ff	-0.040291782
18	0xbcb0cff8	-0.021583542
19	0xbe10e639	-0.14150323
20	0xbe72ebac	-0.23722714
21	0xbdd44c2a	-0.1036609
22	0xbdf64149	-0.12024171
23	0xbbc92901	-0.0061389212
24	0x3cba2f82	0.022727732
25	0xbd926a08	-0.0714913
26	0xbcfdd946	-0.030987393
27	0x3e0498e1	0.12948944
28	0x3e26014e	0.16211435
29	0x3e12c7b2	0.1433399
30	0xbd5eb287	-0.054369476
31	0x3d9b28af	0.07576119
32	0x3bdcf2e4	0.006742822
33	0x3d35c0af	0.04437321
34	0x3df7c0d6	0.120973274
35	0xbdea32a0	-0.11435437
36	0xbe0760dc	-0.13220543
37	0x3dff0a27	0.12453108
38	0x3e255a40	0.16147709
39	0x3da498b6	0.0803694
40	0x3d6d0abc	0.057871565
41	0x3e1990b2	0.14996603
42	0xbda2e7ab	-0.079543434
43	0xbd4bc080	-0.04974413
44	0x3d3bc791	0.04584462
45	0x3d4ae5ba	0.04953549
46	0x3e07d579	0.13265027
47	0x3db43554	0.08799234
48	0x3d6ea448	0.05826214
49	0xbddcc741	-0.10780192
50	0xbd0b2fb9	-0.03398106
51	0xbbe20795	-0.0068978765
52	0x3dc88df1	0.09792698
53	0x3d9ec795	0.07752911
54	0xbe13bebf	-0.14428233
55	0x3de92954	0.11384836
56	0x3d82294f	0.06355535
57	0xbd2cb75f	-0.042167064
58	0x3e295f73	0.16540317
59	0xbdc2fa84	-0.09520438
60	0x3d570399	0.052493665
61	0x3d1e6131	0.038666908
62	0xbdb33ee4	-0.0875223
63	0x3d913053	0.07089295
64	0xbdb22733	-0.08698883
65	0x3da79867	0.08183365
66	0x3df82eae	0.121182784
67	0xbdd9bb1e	-0.10631393
68	0xbde86bfb	-0.11348721
69	0xbd01e417	-0.031711664
70	0xbe81af2f	-0.25328967
71	0xbe8b29a8	-0.2718022
72	0x3e235816	0.15951571
73	0xbe05d679	-0.13070096
74	0xbdf7c65e	-0.120983824
75	0xbe36d71a	-0.17855492
76	0xbee4f675	-0.44719282
77	0xbe36e414	-0.17860442
78	0xbeb70449	-0.35745457
79	0xbdb5ac02	-0.088706985
80	0x3e20823f	0.15674685
81	0x3e854c15	0.26034608
82	0xbe87d43e	-0.26529115
83	0xbd5a7e77	-0.053343263
84	0xbedc1eb7	-0.42992184
85	0xbed032ba	-0.406637
86	0xbd4216f2	-0.047385164
87	0x3c9f65b5	0.019457677
88	0x3e907eaf	0.28221652
89	0x3e5b504e	0.21417353
90	0xbe06c7ce	-0.13162157
91	0x3dc76b2e	0.0973724
92	0xbd12f528	-0.03587833
93	0x3e2cee99	0.16887893
94	0x3e822e57	0.2542598
95	0x3e6b7de2	0.22997239
96	0x3ea1ce48	0.31602693
97	0x3e32377e	0.17403981
98	0x3cdfa6b8	0.027301177
99	0x3e61ae2f	0.22039102
100	0xbe072c75	-0.13200553
101	0xbe392339	-0.18079843
102	0xbe970401	-0.29495242
103	0xbe93e802	-0.28887945
104	0x3e210461	0.15724327
105	0x3d90731e	0.07053207
106	0x3e095e14	0.13414794
107	0x3e8b1b00	0.27169037
108	0x3e7f3fb4	0.24926645
109	0x3d22290d	0.03958993
110	0xbd958e11	-0.07302488
111	0xbe12a7aa	-0.14321771
112	0xbe1a9c55	-0.15098698
113	0x3dba6bcd	0.091025926
114	0x3d0d8e43	0.0345595
115	0x3d84ca54	0.064839035
116	0x3e896bc9	0.26840046
117	0x3e8036a6	0.25041693
118	0xbe19e78b	-0.15029733
119	0x3c15cdeb	0.009143333
120	0x3b7201f6	0.0036927438
121	0xbd8978c5	-0.06712488
122	0xbc1a38f2	-0.009412991
123	0x3e3bdca5	0.18345888
124	0x3e75b48e	0.23994657
125	0x3e825aee	0.2546
126	0x3e5870d1	0.21136786
127	0xbe674dac	-0.22588223
128	0xbe857724	-0.2606746
129	0xbec53e4c	-0.3852409
130	0xbebb0110	-0.36524248
131	0xbd3ee9df	-0.046609756
132	0x3e30051d	0.1718945
133	0x3e36a6c0	0.17837048
134	0x3ea5d34e	0.32387775
135	0xbe4e2b4d	-0.20133705
136	0xbea4af5a	-0.32165033
137	0xbd3f3800	-0.046684265
138	0xbec4f753	-0.38469943
139	0xbdf9e734	-0.122023016
140	0x3e89dfa6	0.26928443
141	0x3e83deb7	0.25755855
142	0x3eb5f9b3	0.35542068
143	0x3eac35a6	0.3363468
144	0x3e17c553	0.14821367
145	0x3e01b991	0.12668444
146	0xbdb1afe6	-0.08676128
147	0x3e5d174c	0.21590918
148	0x3dbc23d6	0.09186523
149	0x3d3e2c92	0.046429224
150	0x3d462f8a	0.04838518
151	0x3e21326d	0.15741892
152	0x3dfa189e	0.122117266
153	0x3d85dabd	0.06535862
154	0x3d9beab0	0.076131225
155	0x3e336005	0.17517097
156	0xbcde2bf3	-0.027120566
157	0x3e1e9ed9	0.15490283
158	0x3dd0aa74	0.10188761
159	0xbe3686ad	-0.17824812
160	0x3d620446	0.055179857
161	0x3e31f7fb	0.17379753
162	0xbe42916f	-0.19000791
163	0xbe37af0f	-0.17937873
164	0xbe34e101	-0.17663957
165	0xbd876b04	-0.066122085
166	0xbe50b012	-0.20379665
167	0xbe3e5330	-0.18586421
168	0xbd80cbf4	-0.06288901
169	0xbe2702c5	-0.1630965
170	0xbe6ca5dd	-0.23110147
171	0x3e440954	0.19144183
172	0x3d1fc674	0.03900762
173	0x3e33617a	0.17517653
174	0x3dd891e0	0.105746984
175	0xbc2b7336	-0.01046448
176	0x3d8ce2fb	0.068792306
177	0xbd0f2518	-0.034947485
178	0x3e22c27d	0.15894504
179	0x3e0c6b0c	0.1371271
180	0xbd605538	-0.05476877
181	0x3d53e3bc	0.051730856
182	0xbceb9be7	-0.028760863
183	0x3d5ac21e	0.05340778
184	0x3da8838d	0.08228216
185	0x3d963297	0.07333868
186	0xbd077acc	-0.033076093
187	0x3d07ef90	0.03318745
188	0x3e3274d2	0.17427376
189	0x3e51aad7	0.20475326
190	0x3d72da12	0.05929
191	0xbc301963	-0.01074824
192	0x3db75acd	0.08952866
193	0x3d70b00f	0.058761653
194	0x3e2e755d	0.17036958
195	0xbd9a2578	-0.07526678
196	0xbddc5a83	-0.10759451
197	0x3ca46fd8	0.020072863
198	0x3e5e1a6c	0.21689767
199	0x3e33abea	0.17546049
200	0x3e2c5dc8	0.1683265
201	0xbbfad71a	-0.0076550366
202	0x3d511a7c	0.051050648
203	0x3e63a484	0.22230726
204	0xbe984233	-0.29738006
205	0x3e09889e	0.13431022
206	0x3cbbf7a6	0.022945236
207	0x3dc760ef	0.097352855
208	0x3caa1107	0.020760072
209	0x3d2a8b05	0.041636486
210	0x3a2edbed	0.0006670345
211	0x3e22d8bb	0.15902989
212	0xbc09b608	-0.008405216
213	0x3d8acdbd	0.06777523
214	0x3e087ea5	0.13329561
215	0xbcec1fa0	-0.028823674
216	0xbe174bf6	-0.1477507
217	0xbe388abe	-0.18021676
218	0xbdd9f599	-0.10642547
219	0x3e719572	0.23592165
220	0x3dfbba91	0.12291444
221	0xbde54c45	-0.11196188
222	0x3dcb3086	0.099213645
223	0x3e9a3f08	0.30126214
224	0x3e7e6584	0.24843413
225	0x3e0157f4	0.12631208
226	0x3dd0893b	0.10182425
227	0x3d026cec	0.031842157
228	0x3d8dfcc4	0.06932977
229	0x3d0b7b14	0.034052923
230	0x3c8bd43d	0.017068977
231	0x3ddfb066	0.10922317
232	0x3e3713da	0.17878667
233	0x3e4e1606	0.20125589
234	0x3d41f399	0.047351453
235	0x3d54b739	0.051932547
236	0xbd29042d	-0.041263748
237	0xbdeea1a6	-0.11651926
238	0xbdbaa7ff	-0.09114074
239	0x3d23db13	0.040003847
240	0xbe314074	-0.17309743
241	0xbe2526dc	-0.16128105
242	0xbd8c1a79	-0.06840987
243	0xbd6b4c9b	-0.057446104
244	0x3e1595b7	0.14607893
245	0xbd97c27b	-0.07410141
246	0x3dc4fa30	0.09618032
247	0x3e3d318c	0.18475932
248	0x3d523be6	0.051326655
249	0x3e13c2bf	0.14429758
250	0x3e20275a	0.15640011
251	0x3e4c46d6	0.19948897
252	0xbd965afa	-0.07341571
253	0xbe180f41	-0.14849569
254	0xbe3c314d	-0.18378182
255	0xbcac894a	-0.021061558

conv_layers.3.bias f4 [16]
0	0xbb7dcb86	-0.0038726046
1	0xbd115104	-0.035477653
2	0x3c75731d	0.014981058
3	0xbd873c4e	-0.06603299
4	0xbe02a1f9	-0.127571
5	0x3e129f39	0.14318551
6	0xbccd4fb5	-0.025062421
7	0x3d9d68d9	0.07686014
8	0x3d8a7084	0.06759742
9	0x3ddcd5d6	0.107829735
10	0xbd32e8b9	-0.043678973
11	0xbd001b2a	-0.031275906
12	0xbdd61e6b	-0.104550205
13	0x3d3318c9	0.04372481
14	0xbda06036	-0.07830851
15	0xbd8e4494	-0.06946674

fc_layer.weight f4 [10, 784]
0	0x3ce3107b	0.02771782
1	0xbcd68610	-0.026186973
2	0xbce57814	-0.02801136
3	0x3b8508f2	0.0040599043
4	0xbd263efd	-0.040587414
5	0x3b47b1bc	0.0030470928
6	0xbc50fba6	-0.01275531
7	0x3cb3817f	0.021912334
8	0xbb9bfbb1	-0.0047602286
9	0xbc082e9f	-0.008311897
10	0xbc961b0e	-0.018323448
11	0xbba2dd09	-0.004970197
12	0x3d053329	0.032519493
13	0xbd12fc4b	-0.035885137
14	0xbd21c978	-0.039498776
15	0xbcc02427	-0.023454739
16	0x3d442d7b	0.047894936
17	0x3c1cdb2a	0.009573737
18	0x3cdb8c61	0.026800336
19	0x3d92a805	0.071609534
20	0xbc22d905	-0.009939437
21	0x3d03acde	0.03214728
22	0x3cec84a7	0.028871847
23	0x3d7f182b	0.062278908
24	0xbdbd6ac5	-0.0924888
25	0xbd48ba78	-0.049005955
26	0x3d06f04e	0.032944016
27	0x3d210e3e	0.039320223
28	0xbc7f3eaa	-0.015578905
29	0xbb4569e9	-0.0030122942
30	0xbc888407	-0.016664518
31	0xbdb9b641	-0.09067965
32	0x3d0c5567	0.034261134
33	0x3d018d75	0.031629045
34	0x3c2be787	0.010492212
35	0xbcc07fc7	-0.023498429
36	0x3ce5aa1a	0.028035212
37	0x3d0b9b83	0.034083854
38	0xbc794f29	-0.015216627
39	0x3c0f842c	0.00875954
40	0xba42430c	-0.00074105035
41	0x3d0aa416	0.03384789
42	0x3c9ec9ad	0.019383276
43	0xbb9d16a9	-0.004793961
44	0x3d3eb44e	0.04655867
45	0xbbc30ae0	-0.005952224
46	0xbc05db79	-0.008170002
47	0xbd5999d2	-0.05312521
48	0xbcf1daf6	-0.029523354
49	0xbd1704ed	-0.036869932
50	0xbd40b1e6	-0.047044657
51	0x3cba07fe	0.02270889
52	0x3ce9a341	0.028520228
53	0x3d013e71	0.03155369
54	0x3d4090ed	0.047013212
55	0x3c101bc0	0.008795679
56	0x3d10249d	0.035191167
57	0x3d21ba8d	0.03948455
58	0xbc1748c2	-0.009233655
59	0xbd2c9eeb	-0.042143743
60	0xbd988d48	-0.07448822
61	0xbdbe9158	-0.09305066
62	0xbcb5eb60	-0.022206962
63	0x3dbee622	0.09321238
64	0x3dbfb3dd	0.09360478
65	0xbcf72cb8	-0.03017269
66	0xbde1e08e	-0.110291585
67	0xbe32585b	-0.17416517
68	0xbe5b237f	-0.2140026
69	0xbd8182e9	-0.06323797
70	0xbc5205e9	-0.012818792
71	0x3d321abf	0.04348254
72	0xbdc0cc59	-0.09413976
73	0x3d2a0dfe	0.04151725
74	0x3d06dc25	0.03292479
75	0xbd800079	-0.0625009
76	0xbd2612e3	-0.040545356
77	0xbd04aca0	-0.03239119
78	0xbd40c1cb	-0.047059815
79	0xbd49a16b	-0.049226206
80	0x3dbfa742	0.09358074
81	0x3d23f4c6	0.040028356
82	0x3d900e3b	0.07033964
83	0x3d90c52a	0.07068856
84	0x3d2c39b1	0.042047206
85	0xbd872ec2	-0.06600715
86	0xbdffedca	-0.124965265
87	0xbcaff1ba	-0.021477569
88	0x3dbed914	0.09318748
89	0x3d003f88	0.031310588
90	0x3d89713a	0.067110494
91	0x3afdac94	0.00193538
92	0x3d2e424b	0.04254369
93	0xbd6076e8	-0.054800898
94	0x3c29c15f	0.010361045
95	0x3d3abd40	0.04559064
96	0x3c6bf61f	0.014401942
97	0xbbed2550	-0.007237114
98	0x3b042692	0.0020164591
99	0x3a992a08	0.00116855
100	0xbc5cc98b	-0.013475786
101	0xbd422656	-0.04739984
102	0xbb3e1383	-0.002900333
103	0xbd1dcd33	-0.03852577
104	0xbc5201bb	-0.012817795
105	0xbce741e6	-0.028229665
106	0xbd2f46ff	-0.042792317
107	0xbc8ca5c2	-0.017168883
108	0x3d3e9606	0.046529792
109	0x3d98ce41	0.07461215
110	0x3dab0003	0.083496116
111	0x3d00cf31	0.031447593
112	0xba1495a2	-0.0005668049
113	0x3baffd64	0.0053707827
114	0x3d55dfd8	0.052215427
115	0xbcce1b9e	-0.025159653
116	0x3cb7d0de	0.022438463
117	0x3dc460b5	0.09588758
118	0x3d23c1f6	0.039979897
119	0x3d86b055	0.065766014
120	0x3db3e756	0.08784358
121	0x3d1d92eb	0.03847019
122	0xbe25e960	-0.16202307
123	0xbd43428d	-0.04767089
124	0x3caa5e26	0.020796847
125	0x3db62f29	0.08895714
126	0xbced3269	-0.028954701
127	0x3d9ca500	0.07648659
128	0xbcb32ea4	-0.021872826
129	0xbd82713a	-0.063692525
130	0x3cb54af1	0.022130461
131	0x3d2c6ae2	0.04209412
132	0x3d17a9c8	0.03702715
133	0x3d2527d8	0.0403212
134	0x3d65f3e5	0.0561408
135	0x3d87cb1e	0.066305384
136	0x3d7d590b	0.061852496
137	0xbd02e695	-0.03195818
138	0xbcba1143	-0.02271331
139	0xbc1d7498	-0.009610318
140	0xbd39151d	-0.04518615
141	0x3cad5d67	0.021162702
142	0x3d282cd4	0.041058376
143	0x3cd829aa	0.026387054
144	0xbc8b4812	-0.01700214
145	0xbd363630	-0.04448527
146	0xbc1e694b	-0.0096686585
147	0xbd529a5f	-0.05141675
148	0xbd2c0046	-0.04199245
149	0x3c8274d3	0.015924847
150	0xbcdfcb5e	-0.027318653
151	0xbc9af1ad	-0.018914068
152	0xbc9ac588	-0.018893018
153	0xbceb51b3	-0.02872548
154	0xbd99b50c	-0.07505235
155	0xbcc02ecb	-0.023459813
156	0x3aa3b6cc	0.0012490391
157	0x3d61614e	0.055024438
158	0x3d5b336f	0.053515848
159	0x3d632ef5	0.055464704
160	0x3d1c263f	0.03812241
161	0x3d96f8a4	0.07371643
162	0x3cf9a6d7	0.030475063
163	0x3d45a6e1	0.04825485
164	0xbd166a00	-0.036722183
165	0xbbcd2219	-0.0062601683
166	0x3dc74e2a	0.097317055
167	0x3d6f0df0	0.0583629
168	0x3d01b17e	0.03166341
169	0x3d57e068	0.052704245
170	0x3d073430	0.033008754
171	0xbe246425	-0.16053827
172	0xbda0adeb	-0.07845672
173	0x3c38b393	0.011273283
174	0x3d12fc65	0.035885233
175	0xbc0e91bd	-0.008701739
176	0x3d4ad1ec	0.049516603
177	0x3cc0da31	0.023541542
178	0xbcf778dc	-0.030208997
179	0x3d0fac02	0.03507615
180	0x3b76ce29	0.0037659502
181	0x3cf5748d	0.029962802
182	0xbce77dae	-0.028258171
183	0x3bbcfca8	0.0057674237
184	0x3cbe3a44	0.023221143
185	0x3d15d0b7	0.036576
186	0x3d3a8b45	0.045542974
187	0xbbfd6ca4	-0.0077338982
188	0xbcc73b81	-0.024320366
189	0xbd4610b8	-0.048355788
190	0xbd20eba6	-0.03928723
191	0xbd4aa1d1	-0.049470726
192	0xbd2c18b5	-0.04201575
193	0xbd6702ed	-0.056399275
194	0xbd5d2665	-0.053991694
195	0xbd829478	-0.063759744
196	0xbd8b1ad0	-0.067922235
197	0xbda0a75a	-0.0784442
198	0xbd38d80e	-0.04512792
199	0x3c781610	0.015141979
200	0x3cb6baea	0.022305924
201	0xbbe9013e	-0.007110744
202	0xbbe9939f	-0.0071281935
203	0xbca47c22	-0.020078722
204	0xbca7e6e1	-0.020495834
205	0x3ba5a05d	0.005054517
206	0x3d3aa051	0.045563046
207	0x3c6530b9	0.013988667
208	0x3c9ad2ff	0.018899439
209	0xbc0e46ba	-0.008683855
210	0xbb629f66	-0.0034579872
211	0x3d5c8abd	0.05384325
212	0x3c8dd779	0.01731466
213	0xbcd86356	-0.026414555
214	0xbc0a058e	-0.008424176
215	0x3d2b44da	0.04181371
216	0x3d5a8c58	0.0533565
217	0x3d81d0e2	0.06338669
218	0x3db36bab	0.087607704
219	0x3c774102	0.015091183
220	0xbe2b66df	-0.16738461
221	0x3d070263	0.03296126
222	0x3db9618e	0.0905181
223	0x3d6ed057	0.058304157
224	0x3d11fe41	0.035642866
225	0x3da809be	0.08204983
226	0xbc662e28	-0.01404909
227	0xbd97936f	-0.074011676
228	0x3c5a76d5	0.013333996
229	0x3dafea83	0.085896514
230	0xbb3ca2f2	-0.0028783646
231	0x3d3fe9fb	0.046854
232	0x3cbae64b	0.02281489
233	0x3d398057	0.04528841
234	0x3c3cd01b	0.011524226
235	0x3aa42363	0.0012522753
236	0x3bc453d8	0.0059914403
237	0xbcd3e375	-0.025865296
238	0x3b9cf289	0.0047896546
239	0x3c5f2591	0.013619796
240	0x3c790016	0.015197774
241	0x3b4a995d	0.0030914166
242	0xbd4cb256	-0.049974762
243	0xbdca1f69	-0.09869272
244	0x3c5547b9	0.013017588
245	0xbcb46eac	-0.022025429
246	0xbc521335	-0.012821962
247	0xbc0cd145	-0.008594816
248	0x3ce5cb02	0.028050903
249	0xbc7b1cf1	-0.015326724
250	0xbca21991	-0.019787582
251	0xbcce6b39	-0.025197612
252	0x3c2f8f3e	0.010715304
253	0xbd4aac8e	-0.049480967
254	0xbd65b711	-0.05608279
255	0xbd9770a3	-0.073945306

fc_layer.bias f4 [10]
0	0xbc0b8bcf	-0.00851722
1	0x3d99f032	0.07516517
2	0xbc0eaab7	-0.008707694
3	0xbd49fa2c	-0.049310848
4	0xbcb788c5	-0.022404084
5	0x3cee053a	0.029055227
6	0x3c834feb	0.016029319
7	0xbc8acf4e	-0.016944554
8	0xbd056375	-0.032565553
9	0xbc92b263	-0.017907327
